<?xml version="1.0" ?>
<net name="RMNet_LReLU with SSD head for Action Detection and Action Recognition" version="10">
	<layers>
		<layer id="0" name="6673667739570" type="Const" version="opset1">
			<data element_type="f16" offset="0" shape="1,1,1,1" size="2"/>
			<output>
				<port id="0" precision="FP16">
					<dim>1</dim>
					<dim>1</dim>
					<dim>1</dim>
					<dim>1</dim>
				</port>
			</output>
		</layer>
		<layer id="1" name="6674667840344" type="Const" version="opset1">
			<data element_type="f16" offset="2" shape="1,1,1,1" size="2"/>
			<output>
				<port id="0" precision="FP16">
					<dim>1</dim>
					<dim>1</dim>
					<dim>1</dim>
					<dim>1</dim>
				</port>
			</output>
		</layer>
		<layer id="2" name="6675667940023" type="Const" version="opset1">
			<data element_type="f16" offset="0" shape="1,1,1,1" size="2"/>
			<output>
				<port id="0" precision="FP16">
					<dim>1</dim>
					<dim>1</dim>
					<dim>1</dim>
					<dim>1</dim>
				</port>
			</output>
		</layer>
		<layer id="3" name="6676668036975" type="Const" version="opset1">
			<data element_type="f16" offset="2" shape="1,1,1,1" size="2"/>
			<output>
				<port id="0" precision="FP16">
					<dim>1</dim>
					<dim>1</dim>
					<dim>1</dim>
					<dim>1</dim>
				</port>
			</output>
		</layer>
		<layer id="4" name="9133913741496" type="Const" version="opset1">
			<data element_type="f16" offset="4" shape="1,1,1,1" size="2"/>
			<output>
				<port id="0" precision="FP16">
					<dim>1</dim>
					<dim>1</dim>
					<dim>1</dim>
					<dim>1</dim>
				</port>
			</output>
		</layer>
		<layer id="5" name="9134913841856" type="Const" version="opset1">
			<data element_type="f16" offset="6" shape="1,1,1,1" size="2"/>
			<output>
				<port id="0" precision="FP16">
					<dim>1</dim>
					<dim>1</dim>
					<dim>1</dim>
					<dim>1</dim>
				</port>
			</output>
		</layer>
		<layer id="6" name="9135913939258" type="Const" version="opset1">
			<data element_type="f16" offset="4" shape="1,1,1,1" size="2"/>
			<output>
				<port id="0" precision="FP16">
					<dim>1</dim>
					<dim>1</dim>
					<dim>1</dim>
					<dim>1</dim>
				</port>
			</output>
		</layer>
		<layer id="7" name="9136914036003" type="Const" version="opset1">
			<data element_type="f16" offset="6" shape="1,1,1,1" size="2"/>
			<output>
				<port id="0" precision="FP16">
					<dim>1</dim>
					<dim>1</dim>
					<dim>1</dim>
					<dim>1</dim>
				</port>
			</output>
		</layer>
		<layer id="8" name="9343934738160" type="Const" version="opset1">
			<data element_type="f16" offset="8" shape="1,1,1,1" size="2"/>
			<output>
				<port id="0" precision="FP16">
					<dim>1</dim>
					<dim>1</dim>
					<dim>1</dim>
					<dim>1</dim>
				</port>
			</output>
		</layer>
		<layer id="9" name="9344934839144" type="Const" version="opset1">
			<data element_type="f16" offset="10" shape="1,1,1,1" size="2"/>
			<output>
				<port id="0" precision="FP16">
					<dim>1</dim>
					<dim>1</dim>
					<dim>1</dim>
					<dim>1</dim>
				</port>
			</output>
		</layer>
		<layer id="10" name="9345934936621" type="Const" version="opset1">
			<data element_type="f16" offset="8" shape="1,1,1,1" size="2"/>
			<output>
				<port id="0" precision="FP16">
					<dim>1</dim>
					<dim>1</dim>
					<dim>1</dim>
					<dim>1</dim>
				</port>
			</output>
		</layer>
		<layer id="11" name="9346935039702" type="Const" version="opset1">
			<data element_type="f16" offset="10" shape="1,1,1,1" size="2"/>
			<output>
				<port id="0" precision="FP16">
					<dim>1</dim>
					<dim>1</dim>
					<dim>1</dim>
					<dim>1</dim>
				</port>
			</output>
		</layer>
		<layer id="12" name="8153815737371" type="Const" version="opset1">
			<data element_type="f16" offset="12" shape="1,1,1,1" size="2"/>
			<output>
				<port id="0" precision="FP16">
					<dim>1</dim>
					<dim>1</dim>
					<dim>1</dim>
					<dim>1</dim>
				</port>
			</output>
		</layer>
		<layer id="13" name="8154815839090" type="Const" version="opset1">
			<data element_type="f16" offset="14" shape="1,1,1,1" size="2"/>
			<output>
				<port id="0" precision="FP16">
					<dim>1</dim>
					<dim>1</dim>
					<dim>1</dim>
					<dim>1</dim>
				</port>
			</output>
		</layer>
		<layer id="14" name="8155815940611" type="Const" version="opset1">
			<data element_type="f16" offset="12" shape="1,1,1,1" size="2"/>
			<output>
				<port id="0" precision="FP16">
					<dim>1</dim>
					<dim>1</dim>
					<dim>1</dim>
					<dim>1</dim>
				</port>
			</output>
		</layer>
		<layer id="15" name="8156816039198" type="Const" version="opset1">
			<data element_type="f16" offset="14" shape="1,1,1,1" size="2"/>
			<output>
				<port id="0" precision="FP16">
					<dim>1</dim>
					<dim>1</dim>
					<dim>1</dim>
					<dim>1</dim>
				</port>
			</output>
		</layer>
		<layer id="16" name="4953495736705" type="Const" version="opset1">
			<data element_type="f16" offset="16" shape="1,1,1,1" size="2"/>
			<output>
				<port id="0" precision="FP16">
					<dim>1</dim>
					<dim>1</dim>
					<dim>1</dim>
					<dim>1</dim>
				</port>
			</output>
		</layer>
		<layer id="17" name="4954495839867" type="Const" version="opset1">
			<data element_type="f16" offset="18" shape="1,1,1,1" size="2"/>
			<output>
				<port id="0" precision="FP16">
					<dim>1</dim>
					<dim>1</dim>
					<dim>1</dim>
					<dim>1</dim>
				</port>
			</output>
		</layer>
		<layer id="18" name="4955495940398" type="Const" version="opset1">
			<data element_type="f16" offset="16" shape="1,1,1,1" size="2"/>
			<output>
				<port id="0" precision="FP16">
					<dim>1</dim>
					<dim>1</dim>
					<dim>1</dim>
					<dim>1</dim>
				</port>
			</output>
		</layer>
		<layer id="19" name="4956496041817" type="Const" version="opset1">
			<data element_type="f16" offset="18" shape="1,1,1,1" size="2"/>
			<output>
				<port id="0" precision="FP16">
					<dim>1</dim>
					<dim>1</dim>
					<dim>1</dim>
					<dim>1</dim>
				</port>
			</output>
		</layer>
		<layer id="20" name="6503650736879" type="Const" version="opset1">
			<data element_type="f16" offset="20" shape="1,1,1,1" size="2"/>
			<output>
				<port id="0" precision="FP16">
					<dim>1</dim>
					<dim>1</dim>
					<dim>1</dim>
					<dim>1</dim>
				</port>
			</output>
		</layer>
		<layer id="21" name="6504650837656" type="Const" version="opset1">
			<data element_type="f16" offset="22" shape="1,1,1,1" size="2"/>
			<output>
				<port id="0" precision="FP16">
					<dim>1</dim>
					<dim>1</dim>
					<dim>1</dim>
					<dim>1</dim>
				</port>
			</output>
		</layer>
		<layer id="22" name="6505650939183" type="Const" version="opset1">
			<data element_type="f16" offset="20" shape="1,1,1,1" size="2"/>
			<output>
				<port id="0" precision="FP16">
					<dim>1</dim>
					<dim>1</dim>
					<dim>1</dim>
					<dim>1</dim>
				</port>
			</output>
		</layer>
		<layer id="23" name="6506651040833" type="Const" version="opset1">
			<data element_type="f16" offset="22" shape="1,1,1,1" size="2"/>
			<output>
				<port id="0" precision="FP16">
					<dim>1</dim>
					<dim>1</dim>
					<dim>1</dim>
					<dim>1</dim>
				</port>
			</output>
		</layer>
		<layer id="24" name="9573957736318" type="Const" version="opset1">
			<data element_type="f16" offset="24" shape="1,1,1,1" size="2"/>
			<output>
				<port id="0" precision="FP16">
					<dim>1</dim>
					<dim>1</dim>
					<dim>1</dim>
					<dim>1</dim>
				</port>
			</output>
		</layer>
		<layer id="25" name="9574957837755" type="Const" version="opset1">
			<data element_type="f16" offset="26" shape="1,1,1,1" size="2"/>
			<output>
				<port id="0" precision="FP16">
					<dim>1</dim>
					<dim>1</dim>
					<dim>1</dim>
					<dim>1</dim>
				</port>
			</output>
		</layer>
		<layer id="26" name="9575957937962" type="Const" version="opset1">
			<data element_type="f16" offset="24" shape="1,1,1,1" size="2"/>
			<output>
				<port id="0" precision="FP16">
					<dim>1</dim>
					<dim>1</dim>
					<dim>1</dim>
					<dim>1</dim>
				</port>
			</output>
		</layer>
		<layer id="27" name="9576958042699" type="Const" version="opset1">
			<data element_type="f16" offset="26" shape="1,1,1,1" size="2"/>
			<output>
				<port id="0" precision="FP16">
					<dim>1</dim>
					<dim>1</dim>
					<dim>1</dim>
					<dim>1</dim>
				</port>
			</output>
		</layer>
		<layer id="28" name="101131011737482" type="Const" version="opset1">
			<data element_type="f16" offset="28" shape="1,1,1,1" size="2"/>
			<output>
				<port id="0" precision="FP16">
					<dim>1</dim>
					<dim>1</dim>
					<dim>1</dim>
					<dim>1</dim>
				</port>
			</output>
		</layer>
		<layer id="29" name="101141011837701" type="Const" version="opset1">
			<data element_type="f16" offset="30" shape="1,1,1,1" size="2"/>
			<output>
				<port id="0" precision="FP16">
					<dim>1</dim>
					<dim>1</dim>
					<dim>1</dim>
					<dim>1</dim>
				</port>
			</output>
		</layer>
		<layer id="30" name="101151011939504" type="Const" version="opset1">
			<data element_type="f16" offset="28" shape="1,1,1,1" size="2"/>
			<output>
				<port id="0" precision="FP16">
					<dim>1</dim>
					<dim>1</dim>
					<dim>1</dim>
					<dim>1</dim>
				</port>
			</output>
		</layer>
		<layer id="31" name="101161012041463" type="Const" version="opset1">
			<data element_type="f16" offset="30" shape="1,1,1,1" size="2"/>
			<output>
				<port id="0" precision="FP16">
					<dim>1</dim>
					<dim>1</dim>
					<dim>1</dim>
					<dim>1</dim>
				</port>
			</output>
		</layer>
		<layer id="32" name="9013901742573" type="Const" version="opset1">
			<data element_type="f16" offset="32" shape="1,1,1,1" size="2"/>
			<output>
				<port id="0" precision="FP16">
					<dim>1</dim>
					<dim>1</dim>
					<dim>1</dim>
					<dim>1</dim>
				</port>
			</output>
		</layer>
		<layer id="33" name="9014901836252" type="Const" version="opset1">
			<data element_type="f16" offset="34" shape="1,1,1,1" size="2"/>
			<output>
				<port id="0" precision="FP16">
					<dim>1</dim>
					<dim>1</dim>
					<dim>1</dim>
					<dim>1</dim>
				</port>
			</output>
		</layer>
		<layer id="34" name="9015901941910" type="Const" version="opset1">
			<data element_type="f16" offset="32" shape="1,1,1,1" size="2"/>
			<output>
				<port id="0" precision="FP16">
					<dim>1</dim>
					<dim>1</dim>
					<dim>1</dim>
					<dim>1</dim>
				</port>
			</output>
		</layer>
		<layer id="35" name="9016902037461" type="Const" version="opset1">
			<data element_type="f16" offset="34" shape="1,1,1,1" size="2"/>
			<output>
				<port id="0" precision="FP16">
					<dim>1</dim>
					<dim>1</dim>
					<dim>1</dim>
					<dim>1</dim>
				</port>
			</output>
		</layer>
		<layer id="36" name="8353835739501" type="Const" version="opset1">
			<data element_type="f16" offset="36" shape="1,1,1,1" size="2"/>
			<output>
				<port id="0" precision="FP16">
					<dim>1</dim>
					<dim>1</dim>
					<dim>1</dim>
					<dim>1</dim>
				</port>
			</output>
		</layer>
		<layer id="37" name="8354835841940" type="Const" version="opset1">
			<data element_type="f16" offset="38" shape="1,1,1,1" size="2"/>
			<output>
				<port id="0" precision="FP16">
					<dim>1</dim>
					<dim>1</dim>
					<dim>1</dim>
					<dim>1</dim>
				</port>
			</output>
		</layer>
		<layer id="38" name="8355835937254" type="Const" version="opset1">
			<data element_type="f16" offset="36" shape="1,1,1,1" size="2"/>
			<output>
				<port id="0" precision="FP16">
					<dim>1</dim>
					<dim>1</dim>
					<dim>1</dim>
					<dim>1</dim>
				</port>
			</output>
		</layer>
		<layer id="39" name="8356836039417" type="Const" version="opset1">
			<data element_type="f16" offset="38" shape="1,1,1,1" size="2"/>
			<output>
				<port id="0" precision="FP16">
					<dim>1</dim>
					<dim>1</dim>
					<dim>1</dim>
					<dim>1</dim>
				</port>
			</output>
		</layer>
		<layer id="40" name="9443944738805" type="Const" version="opset1">
			<data element_type="f16" offset="40" shape="1,1,1,1" size="2"/>
			<output>
				<port id="0" precision="FP16">
					<dim>1</dim>
					<dim>1</dim>
					<dim>1</dim>
					<dim>1</dim>
				</port>
			</output>
		</layer>
		<layer id="41" name="9444944840125" type="Const" version="opset1">
			<data element_type="f16" offset="42" shape="1,1,1,1" size="2"/>
			<output>
				<port id="0" precision="FP16">
					<dim>1</dim>
					<dim>1</dim>
					<dim>1</dim>
					<dim>1</dim>
				</port>
			</output>
		</layer>
		<layer id="42" name="9445944939780" type="Const" version="opset1">
			<data element_type="f16" offset="40" shape="1,1,1,1" size="2"/>
			<output>
				<port id="0" precision="FP16">
					<dim>1</dim>
					<dim>1</dim>
					<dim>1</dim>
					<dim>1</dim>
				</port>
			</output>
		</layer>
		<layer id="43" name="9446945041358" type="Const" version="opset1">
			<data element_type="f16" offset="42" shape="1,1,1,1" size="2"/>
			<output>
				<port id="0" precision="FP16">
					<dim>1</dim>
					<dim>1</dim>
					<dim>1</dim>
					<dim>1</dim>
				</port>
			</output>
		</layer>
		<layer id="44" name="5273527736987" type="Const" version="opset1">
			<data element_type="f16" offset="44" shape="1,1,1,1" size="2"/>
			<output>
				<port id="0" precision="FP16">
					<dim>1</dim>
					<dim>1</dim>
					<dim>1</dim>
					<dim>1</dim>
				</port>
			</output>
		</layer>
		<layer id="45" name="5274527839084" type="Const" version="opset1">
			<data element_type="f16" offset="46" shape="1,1,1,1" size="2"/>
			<output>
				<port id="0" precision="FP16">
					<dim>1</dim>
					<dim>1</dim>
					<dim>1</dim>
					<dim>1</dim>
				</port>
			</output>
		</layer>
		<layer id="46" name="5275527942114" type="Const" version="opset1">
			<data element_type="f16" offset="44" shape="1,1,1,1" size="2"/>
			<output>
				<port id="0" precision="FP16">
					<dim>1</dim>
					<dim>1</dim>
					<dim>1</dim>
					<dim>1</dim>
				</port>
			</output>
		</layer>
		<layer id="47" name="5276528039297" type="Const" version="opset1">
			<data element_type="f16" offset="46" shape="1,1,1,1" size="2"/>
			<output>
				<port id="0" precision="FP16">
					<dim>1</dim>
					<dim>1</dim>
					<dim>1</dim>
					<dim>1</dim>
				</port>
			</output>
		</layer>
		<layer id="48" name="8003800740359" type="Const" version="opset1">
			<data element_type="f16" offset="48" shape="1,1,1,1" size="2"/>
			<output>
				<port id="0" precision="FP16">
					<dim>1</dim>
					<dim>1</dim>
					<dim>1</dim>
					<dim>1</dim>
				</port>
			</output>
		</layer>
		<layer id="49" name="8004800838472" type="Const" version="opset1">
			<data element_type="f16" offset="50" shape="1,1,1,1" size="2"/>
			<output>
				<port id="0" precision="FP16">
					<dim>1</dim>
					<dim>1</dim>
					<dim>1</dim>
					<dim>1</dim>
				</port>
			</output>
		</layer>
		<layer id="50" name="8005800938301" type="Const" version="opset1">
			<data element_type="f16" offset="48" shape="1,1,1,1" size="2"/>
			<output>
				<port id="0" precision="FP16">
					<dim>1</dim>
					<dim>1</dim>
					<dim>1</dim>
					<dim>1</dim>
				</port>
			</output>
		</layer>
		<layer id="51" name="8006801042429" type="Const" version="opset1">
			<data element_type="f16" offset="50" shape="1,1,1,1" size="2"/>
			<output>
				<port id="0" precision="FP16">
					<dim>1</dim>
					<dim>1</dim>
					<dim>1</dim>
					<dim>1</dim>
				</port>
			</output>
		</layer>
		<layer id="52" name="7383738742195" type="Const" version="opset1">
			<data element_type="f16" offset="52" shape="1,1,1,1" size="2"/>
			<output>
				<port id="0" precision="FP16">
					<dim>1</dim>
					<dim>1</dim>
					<dim>1</dim>
					<dim>1</dim>
				</port>
			</output>
		</layer>
		<layer id="53" name="7384738839345" type="Const" version="opset1">
			<data element_type="f16" offset="54" shape="1,1,1,1" size="2"/>
			<output>
				<port id="0" precision="FP16">
					<dim>1</dim>
					<dim>1</dim>
					<dim>1</dim>
					<dim>1</dim>
				</port>
			</output>
		</layer>
		<layer id="54" name="7385738936495" type="Const" version="opset1">
			<data element_type="f16" offset="52" shape="1,1,1,1" size="2"/>
			<output>
				<port id="0" precision="FP16">
					<dim>1</dim>
					<dim>1</dim>
					<dim>1</dim>
					<dim>1</dim>
				</port>
			</output>
		</layer>
		<layer id="55" name="7386739037629" type="Const" version="opset1">
			<data element_type="f16" offset="54" shape="1,1,1,1" size="2"/>
			<output>
				<port id="0" precision="FP16">
					<dim>1</dim>
					<dim>1</dim>
					<dim>1</dim>
					<dim>1</dim>
				</port>
			</output>
		</layer>
		<layer id="56" name="9463946741451" type="Const" version="opset1">
			<data element_type="f16" offset="56" shape="1,1,1,1" size="2"/>
			<output>
				<port id="0" precision="FP16">
					<dim>1</dim>
					<dim>1</dim>
					<dim>1</dim>
					<dim>1</dim>
				</port>
			</output>
		</layer>
		<layer id="57" name="9464946836024" type="Const" version="opset1">
			<data element_type="f16" offset="58" shape="1,1,1,1" size="2"/>
			<output>
				<port id="0" precision="FP16">
					<dim>1</dim>
					<dim>1</dim>
					<dim>1</dim>
					<dim>1</dim>
				</port>
			</output>
		</layer>
		<layer id="58" name="9465946940320" type="Const" version="opset1">
			<data element_type="f16" offset="56" shape="1,1,1,1" size="2"/>
			<output>
				<port id="0" precision="FP16">
					<dim>1</dim>
					<dim>1</dim>
					<dim>1</dim>
					<dim>1</dim>
				</port>
			</output>
		</layer>
		<layer id="59" name="9466947038397" type="Const" version="opset1">
			<data element_type="f16" offset="58" shape="1,1,1,1" size="2"/>
			<output>
				<port id="0" precision="FP16">
					<dim>1</dim>
					<dim>1</dim>
					<dim>1</dim>
					<dim>1</dim>
				</port>
			</output>
		</layer>
		<layer id="60" name="4933493737113" type="Const" version="opset1">
			<data element_type="f16" offset="60" shape="1,1,1,1" size="2"/>
			<output>
				<port id="0" precision="FP16">
					<dim>1</dim>
					<dim>1</dim>
					<dim>1</dim>
					<dim>1</dim>
				</port>
			</output>
		</layer>
		<layer id="61" name="4934493842303" type="Const" version="opset1">
			<data element_type="f16" offset="62" shape="1,1,1,1" size="2"/>
			<output>
				<port id="0" precision="FP16">
					<dim>1</dim>
					<dim>1</dim>
					<dim>1</dim>
					<dim>1</dim>
				</port>
			</output>
		</layer>
		<layer id="62" name="4935493937779" type="Const" version="opset1">
			<data element_type="f16" offset="60" shape="1,1,1,1" size="2"/>
			<output>
				<port id="0" precision="FP16">
					<dim>1</dim>
					<dim>1</dim>
					<dim>1</dim>
					<dim>1</dim>
				</port>
			</output>
		</layer>
		<layer id="63" name="4936494042393" type="Const" version="opset1">
			<data element_type="f16" offset="62" shape="1,1,1,1" size="2"/>
			<output>
				<port id="0" precision="FP16">
					<dim>1</dim>
					<dim>1</dim>
					<dim>1</dim>
					<dim>1</dim>
				</port>
			</output>
		</layer>
		<layer id="64" name="5313531738757" type="Const" version="opset1">
			<data element_type="f16" offset="64" shape="1,1,1,1" size="2"/>
			<output>
				<port id="0" precision="FP16">
					<dim>1</dim>
					<dim>1</dim>
					<dim>1</dim>
					<dim>1</dim>
				</port>
			</output>
		</layer>
		<layer id="65" name="5314531841454" type="Const" version="opset1">
			<data element_type="f16" offset="66" shape="1,1,1,1" size="2"/>
			<output>
				<port id="0" precision="FP16">
					<dim>1</dim>
					<dim>1</dim>
					<dim>1</dim>
					<dim>1</dim>
				</port>
			</output>
		</layer>
		<layer id="66" name="5315531942450" type="Const" version="opset1">
			<data element_type="f16" offset="64" shape="1,1,1,1" size="2"/>
			<output>
				<port id="0" precision="FP16">
					<dim>1</dim>
					<dim>1</dim>
					<dim>1</dim>
					<dim>1</dim>
				</port>
			</output>
		</layer>
		<layer id="67" name="5316532038079" type="Const" version="opset1">
			<data element_type="f16" offset="66" shape="1,1,1,1" size="2"/>
			<output>
				<port id="0" precision="FP16">
					<dim>1</dim>
					<dim>1</dim>
					<dim>1</dim>
					<dim>1</dim>
				</port>
			</output>
		</layer>
		<layer id="68" name="8953895739006" type="Const" version="opset1">
			<data element_type="f16" offset="68" shape="1,1,1,1" size="2"/>
			<output>
				<port id="0" precision="FP16">
					<dim>1</dim>
					<dim>1</dim>
					<dim>1</dim>
					<dim>1</dim>
				</port>
			</output>
		</layer>
		<layer id="69" name="8954895841799" type="Const" version="opset1">
			<data element_type="f16" offset="70" shape="1,1,1,1" size="2"/>
			<output>
				<port id="0" precision="FP16">
					<dim>1</dim>
					<dim>1</dim>
					<dim>1</dim>
					<dim>1</dim>
				</port>
			</output>
		</layer>
		<layer id="70" name="8955895940914" type="Const" version="opset1">
			<data element_type="f16" offset="68" shape="1,1,1,1" size="2"/>
			<output>
				<port id="0" precision="FP16">
					<dim>1</dim>
					<dim>1</dim>
					<dim>1</dim>
					<dim>1</dim>
				</port>
			</output>
		</layer>
		<layer id="71" name="8956896041604" type="Const" version="opset1">
			<data element_type="f16" offset="70" shape="1,1,1,1" size="2"/>
			<output>
				<port id="0" precision="FP16">
					<dim>1</dim>
					<dim>1</dim>
					<dim>1</dim>
					<dim>1</dim>
				</port>
			</output>
		</layer>
		<layer id="72" name="6523652740080" type="Const" version="opset1">
			<data element_type="f16" offset="72" shape="1,1,1,1" size="2"/>
			<output>
				<port id="0" precision="FP16">
					<dim>1</dim>
					<dim>1</dim>
					<dim>1</dim>
					<dim>1</dim>
				</port>
			</output>
		</layer>
		<layer id="73" name="6524652841211" type="Const" version="opset1">
			<data element_type="f16" offset="74" shape="1,1,1,1" size="2"/>
			<output>
				<port id="0" precision="FP16">
					<dim>1</dim>
					<dim>1</dim>
					<dim>1</dim>
					<dim>1</dim>
				</port>
			</output>
		</layer>
		<layer id="74" name="6525652938133" type="Const" version="opset1">
			<data element_type="f16" offset="72" shape="1,1,1,1" size="2"/>
			<output>
				<port id="0" precision="FP16">
					<dim>1</dim>
					<dim>1</dim>
					<dim>1</dim>
					<dim>1</dim>
				</port>
			</output>
		</layer>
		<layer id="75" name="6526653041760" type="Const" version="opset1">
			<data element_type="f16" offset="74" shape="1,1,1,1" size="2"/>
			<output>
				<port id="0" precision="FP16">
					<dim>1</dim>
					<dim>1</dim>
					<dim>1</dim>
					<dim>1</dim>
				</port>
			</output>
		</layer>
		<layer id="76" name="7743774740920" type="Const" version="opset1">
			<data element_type="f16" offset="76" shape="1,1,1,1" size="2"/>
			<output>
				<port id="0" precision="FP16">
					<dim>1</dim>
					<dim>1</dim>
					<dim>1</dim>
					<dim>1</dim>
				</port>
			</output>
		</layer>
		<layer id="77" name="7744774839564" type="Const" version="opset1">
			<data element_type="f16" offset="78" shape="1,1,1,1" size="2"/>
			<output>
				<port id="0" precision="FP16">
					<dim>1</dim>
					<dim>1</dim>
					<dim>1</dim>
					<dim>1</dim>
				</port>
			</output>
		</layer>
		<layer id="78" name="7745774941610" type="Const" version="opset1">
			<data element_type="f16" offset="76" shape="1,1,1,1" size="2"/>
			<output>
				<port id="0" precision="FP16">
					<dim>1</dim>
					<dim>1</dim>
					<dim>1</dim>
					<dim>1</dim>
				</port>
			</output>
		</layer>
		<layer id="79" name="7746775040161" type="Const" version="opset1">
			<data element_type="f16" offset="78" shape="1,1,1,1" size="2"/>
			<output>
				<port id="0" precision="FP16">
					<dim>1</dim>
					<dim>1</dim>
					<dim>1</dim>
					<dim>1</dim>
				</port>
			</output>
		</layer>
		<layer id="80" name="100531005741925" type="Const" version="opset1">
			<data element_type="f16" offset="80" shape="1,1,1,1" size="2"/>
			<output>
				<port id="0" precision="FP16">
					<dim>1</dim>
					<dim>1</dim>
					<dim>1</dim>
					<dim>1</dim>
				</port>
			</output>
		</layer>
		<layer id="81" name="100541005837650" type="Const" version="opset1">
			<data element_type="f16" offset="82" shape="1,1,1,1" size="2"/>
			<output>
				<port id="0" precision="FP16">
					<dim>1</dim>
					<dim>1</dim>
					<dim>1</dim>
					<dim>1</dim>
				</port>
			</output>
		</layer>
		<layer id="82" name="100551005936537" type="Const" version="opset1">
			<data element_type="f16" offset="80" shape="1,1,1,1" size="2"/>
			<output>
				<port id="0" precision="FP16">
					<dim>1</dim>
					<dim>1</dim>
					<dim>1</dim>
					<dim>1</dim>
				</port>
			</output>
		</layer>
		<layer id="83" name="100561006040050" type="Const" version="opset1">
			<data element_type="f16" offset="82" shape="1,1,1,1" size="2"/>
			<output>
				<port id="0" precision="FP16">
					<dim>1</dim>
					<dim>1</dim>
					<dim>1</dim>
					<dim>1</dim>
				</port>
			</output>
		</layer>
		<layer id="84" name="9673967739237" type="Const" version="opset1">
			<data element_type="f16" offset="84" shape="1,1,1,1" size="2"/>
			<output>
				<port id="0" precision="FP16">
					<dim>1</dim>
					<dim>1</dim>
					<dim>1</dim>
					<dim>1</dim>
				</port>
			</output>
		</layer>
		<layer id="85" name="9674967837698" type="Const" version="opset1">
			<data element_type="f16" offset="86" shape="1,1,1,1" size="2"/>
			<output>
				<port id="0" precision="FP16">
					<dim>1</dim>
					<dim>1</dim>
					<dim>1</dim>
					<dim>1</dim>
				</port>
			</output>
		</layer>
		<layer id="86" name="9675967942441" type="Const" version="opset1">
			<data element_type="f16" offset="84" shape="1,1,1,1" size="2"/>
			<output>
				<port id="0" precision="FP16">
					<dim>1</dim>
					<dim>1</dim>
					<dim>1</dim>
					<dim>1</dim>
				</port>
			</output>
		</layer>
		<layer id="87" name="9676968039600" type="Const" version="opset1">
			<data element_type="f16" offset="86" shape="1,1,1,1" size="2"/>
			<output>
				<port id="0" precision="FP16">
					<dim>1</dim>
					<dim>1</dim>
					<dim>1</dim>
					<dim>1</dim>
				</port>
			</output>
		</layer>
		<layer id="88" name="102131021742510" type="Const" version="opset1">
			<data element_type="f16" offset="88" shape="1,1,1,1" size="2"/>
			<output>
				<port id="0" precision="FP16">
					<dim>1</dim>
					<dim>1</dim>
					<dim>1</dim>
					<dim>1</dim>
				</port>
			</output>
		</layer>
		<layer id="89" name="102141021840392" type="Const" version="opset1">
			<data element_type="f16" offset="90" shape="1,1,1,1" size="2"/>
			<output>
				<port id="0" precision="FP16">
					<dim>1</dim>
					<dim>1</dim>
					<dim>1</dim>
					<dim>1</dim>
				</port>
			</output>
		</layer>
		<layer id="90" name="102151021939267" type="Const" version="opset1">
			<data element_type="f16" offset="88" shape="1,1,1,1" size="2"/>
			<output>
				<port id="0" precision="FP16">
					<dim>1</dim>
					<dim>1</dim>
					<dim>1</dim>
					<dim>1</dim>
				</port>
			</output>
		</layer>
		<layer id="91" name="102161022036483" type="Const" version="opset1">
			<data element_type="f16" offset="90" shape="1,1,1,1" size="2"/>
			<output>
				<port id="0" precision="FP16">
					<dim>1</dim>
					<dim>1</dim>
					<dim>1</dim>
					<dim>1</dim>
				</port>
			</output>
		</layer>
		<layer id="92" name="6383638741046" type="Const" version="opset1">
			<data element_type="f16" offset="92" shape="1,1,1,1" size="2"/>
			<output>
				<port id="0" precision="FP16">
					<dim>1</dim>
					<dim>1</dim>
					<dim>1</dim>
					<dim>1</dim>
				</port>
			</output>
		</layer>
		<layer id="93" name="6384638838334" type="Const" version="opset1">
			<data element_type="f16" offset="94" shape="1,1,1,1" size="2"/>
			<output>
				<port id="0" precision="FP16">
					<dim>1</dim>
					<dim>1</dim>
					<dim>1</dim>
					<dim>1</dim>
				</port>
			</output>
		</layer>
		<layer id="94" name="6385638936456" type="Const" version="opset1">
			<data element_type="f16" offset="92" shape="1,1,1,1" size="2"/>
			<output>
				<port id="0" precision="FP16">
					<dim>1</dim>
					<dim>1</dim>
					<dim>1</dim>
					<dim>1</dim>
				</port>
			</output>
		</layer>
		<layer id="95" name="6386639039033" type="Const" version="opset1">
			<data element_type="f16" offset="94" shape="1,1,1,1" size="2"/>
			<output>
				<port id="0" precision="FP16">
					<dim>1</dim>
					<dim>1</dim>
					<dim>1</dim>
					<dim>1</dim>
				</port>
			</output>
		</layer>
		<layer id="96" name="6463646737905" type="Const" version="opset1">
			<data element_type="f16" offset="96" shape="1,1,1,1" size="2"/>
			<output>
				<port id="0" precision="FP16">
					<dim>1</dim>
					<dim>1</dim>
					<dim>1</dim>
					<dim>1</dim>
				</port>
			</output>
		</layer>
		<layer id="97" name="6464646842525" type="Const" version="opset1">
			<data element_type="f16" offset="98" shape="1,1,1,1" size="2"/>
			<output>
				<port id="0" precision="FP16">
					<dim>1</dim>
					<dim>1</dim>
					<dim>1</dim>
					<dim>1</dim>
				</port>
			</output>
		</layer>
		<layer id="98" name="6465646937197" type="Const" version="opset1">
			<data element_type="f16" offset="96" shape="1,1,1,1" size="2"/>
			<output>
				<port id="0" precision="FP16">
					<dim>1</dim>
					<dim>1</dim>
					<dim>1</dim>
					<dim>1</dim>
				</port>
			</output>
		</layer>
		<layer id="99" name="6466647038280" type="Const" version="opset1">
			<data element_type="f16" offset="98" shape="1,1,1,1" size="2"/>
			<output>
				<port id="0" precision="FP16">
					<dim>1</dim>
					<dim>1</dim>
					<dim>1</dim>
					<dim>1</dim>
				</port>
			</output>
		</layer>
		<layer id="100" name="7883788741466" type="Const" version="opset1">
			<data element_type="f16" offset="100" shape="1,1,1,1" size="2"/>
			<output>
				<port id="0" precision="FP16">
					<dim>1</dim>
					<dim>1</dim>
					<dim>1</dim>
					<dim>1</dim>
				</port>
			</output>
		</layer>
		<layer id="101" name="7884788841139" type="Const" version="opset1">
			<data element_type="f16" offset="102" shape="1,1,1,1" size="2"/>
			<output>
				<port id="0" precision="FP16">
					<dim>1</dim>
					<dim>1</dim>
					<dim>1</dim>
					<dim>1</dim>
				</port>
			</output>
		</layer>
		<layer id="102" name="7885788941079" type="Const" version="opset1">
			<data element_type="f16" offset="100" shape="1,1,1,1" size="2"/>
			<output>
				<port id="0" precision="FP16">
					<dim>1</dim>
					<dim>1</dim>
					<dim>1</dim>
					<dim>1</dim>
				</port>
			</output>
		</layer>
		<layer id="103" name="7886789039621" type="Const" version="opset1">
			<data element_type="f16" offset="102" shape="1,1,1,1" size="2"/>
			<output>
				<port id="0" precision="FP16">
					<dim>1</dim>
					<dim>1</dim>
					<dim>1</dim>
					<dim>1</dim>
				</port>
			</output>
		</layer>
		<layer id="104" name="6573657740917" type="Const" version="opset1">
			<data element_type="f16" offset="104" shape="1,1,1,1" size="2"/>
			<output>
				<port id="0" precision="FP16">
					<dim>1</dim>
					<dim>1</dim>
					<dim>1</dim>
					<dim>1</dim>
				</port>
			</output>
		</layer>
		<layer id="105" name="6574657841427" type="Const" version="opset1">
			<data element_type="f16" offset="106" shape="1,1,1,1" size="2"/>
			<output>
				<port id="0" precision="FP16">
					<dim>1</dim>
					<dim>1</dim>
					<dim>1</dim>
					<dim>1</dim>
				</port>
			</output>
		</layer>
		<layer id="106" name="6575657942600" type="Const" version="opset1">
			<data element_type="f16" offset="104" shape="1,1,1,1" size="2"/>
			<output>
				<port id="0" precision="FP16">
					<dim>1</dim>
					<dim>1</dim>
					<dim>1</dim>
					<dim>1</dim>
				</port>
			</output>
		</layer>
		<layer id="107" name="6576658036555" type="Const" version="opset1">
			<data element_type="f16" offset="106" shape="1,1,1,1" size="2"/>
			<output>
				<port id="0" precision="FP16">
					<dim>1</dim>
					<dim>1</dim>
					<dim>1</dim>
					<dim>1</dim>
				</port>
			</output>
		</layer>
		<layer id="108" name="8833883739045" type="Const" version="opset1">
			<data element_type="f16" offset="108" shape="1,1,1,1" size="2"/>
			<output>
				<port id="0" precision="FP16">
					<dim>1</dim>
					<dim>1</dim>
					<dim>1</dim>
					<dim>1</dim>
				</port>
			</output>
		</layer>
		<layer id="109" name="8834883837509" type="Const" version="opset1">
			<data element_type="f16" offset="110" shape="1,1,1,1" size="2"/>
			<output>
				<port id="0" precision="FP16">
					<dim>1</dim>
					<dim>1</dim>
					<dim>1</dim>
					<dim>1</dim>
				</port>
			</output>
		</layer>
		<layer id="110" name="8835883940458" type="Const" version="opset1">
			<data element_type="f16" offset="108" shape="1,1,1,1" size="2"/>
			<output>
				<port id="0" precision="FP16">
					<dim>1</dim>
					<dim>1</dim>
					<dim>1</dim>
					<dim>1</dim>
				</port>
			</output>
		</layer>
		<layer id="111" name="8836884041100" type="Const" version="opset1">
			<data element_type="f16" offset="110" shape="1,1,1,1" size="2"/>
			<output>
				<port id="0" precision="FP16">
					<dim>1</dim>
					<dim>1</dim>
					<dim>1</dim>
					<dim>1</dim>
				</port>
			</output>
		</layer>
		<layer id="112" name="8583858736783" type="Const" version="opset1">
			<data element_type="f16" offset="112" shape="1,1,1,1" size="2"/>
			<output>
				<port id="0" precision="FP16">
					<dim>1</dim>
					<dim>1</dim>
					<dim>1</dim>
					<dim>1</dim>
				</port>
			</output>
		</layer>
		<layer id="113" name="8584858836255" type="Const" version="opset1">
			<data element_type="f16" offset="114" shape="1,1,1,1" size="2"/>
			<output>
				<port id="0" precision="FP16">
					<dim>1</dim>
					<dim>1</dim>
					<dim>1</dim>
					<dim>1</dim>
				</port>
			</output>
		</layer>
		<layer id="114" name="8585858940278" type="Const" version="opset1">
			<data element_type="f16" offset="112" shape="1,1,1,1" size="2"/>
			<output>
				<port id="0" precision="FP16">
					<dim>1</dim>
					<dim>1</dim>
					<dim>1</dim>
					<dim>1</dim>
				</port>
			</output>
		</layer>
		<layer id="115" name="8586859036993" type="Const" version="opset1">
			<data element_type="f16" offset="114" shape="1,1,1,1" size="2"/>
			<output>
				<port id="0" precision="FP16">
					<dim>1</dim>
					<dim>1</dim>
					<dim>1</dim>
					<dim>1</dim>
				</port>
			</output>
		</layer>
		<layer id="116" name="5813581742585" type="Const" version="opset1">
			<data element_type="f16" offset="116" shape="1,1,1,1" size="2"/>
			<output>
				<port id="0" precision="FP16">
					<dim>1</dim>
					<dim>1</dim>
					<dim>1</dim>
					<dim>1</dim>
				</port>
			</output>
		</layer>
		<layer id="117" name="5814581840824" type="Const" version="opset1">
			<data element_type="f16" offset="118" shape="1,1,1,1" size="2"/>
			<output>
				<port id="0" precision="FP16">
					<dim>1</dim>
					<dim>1</dim>
					<dim>1</dim>
					<dim>1</dim>
				</port>
			</output>
		</layer>
		<layer id="118" name="5815581937485" type="Const" version="opset1">
			<data element_type="f16" offset="116" shape="1,1,1,1" size="2"/>
			<output>
				<port id="0" precision="FP16">
					<dim>1</dim>
					<dim>1</dim>
					<dim>1</dim>
					<dim>1</dim>
				</port>
			</output>
		</layer>
		<layer id="119" name="5816582040893" type="Const" version="opset1">
			<data element_type="f16" offset="118" shape="1,1,1,1" size="2"/>
			<output>
				<port id="0" precision="FP16">
					<dim>1</dim>
					<dim>1</dim>
					<dim>1</dim>
					<dim>1</dim>
				</port>
			</output>
		</layer>
		<layer id="120" name="9553955741637" type="Const" version="opset1">
			<data element_type="f16" offset="120" shape="1,1,1,1" size="2"/>
			<output>
				<port id="0" precision="FP16">
					<dim>1</dim>
					<dim>1</dim>
					<dim>1</dim>
					<dim>1</dim>
				</port>
			</output>
		</layer>
		<layer id="121" name="9554955838085" type="Const" version="opset1">
			<data element_type="f16" offset="122" shape="1,1,1,1" size="2"/>
			<output>
				<port id="0" precision="FP16">
					<dim>1</dim>
					<dim>1</dim>
					<dim>1</dim>
					<dim>1</dim>
				</port>
			</output>
		</layer>
		<layer id="122" name="9555955938001" type="Const" version="opset1">
			<data element_type="f16" offset="120" shape="1,1,1,1" size="2"/>
			<output>
				<port id="0" precision="FP16">
					<dim>1</dim>
					<dim>1</dim>
					<dim>1</dim>
					<dim>1</dim>
				</port>
			</output>
		</layer>
		<layer id="123" name="9556956042669" type="Const" version="opset1">
			<data element_type="f16" offset="122" shape="1,1,1,1" size="2"/>
			<output>
				<port id="0" precision="FP16">
					<dim>1</dim>
					<dim>1</dim>
					<dim>1</dim>
					<dim>1</dim>
				</port>
			</output>
		</layer>
		<layer id="124" name="5773577737995" type="Const" version="opset1">
			<data element_type="f16" offset="124" shape="1,1,1,1" size="2"/>
			<output>
				<port id="0" precision="FP16">
					<dim>1</dim>
					<dim>1</dim>
					<dim>1</dim>
					<dim>1</dim>
				</port>
			</output>
		</layer>
		<layer id="125" name="5774577837230" type="Const" version="opset1">
			<data element_type="f16" offset="126" shape="1,1,1,1" size="2"/>
			<output>
				<port id="0" precision="FP16">
					<dim>1</dim>
					<dim>1</dim>
					<dim>1</dim>
					<dim>1</dim>
				</port>
			</output>
		</layer>
		<layer id="126" name="5775577941520" type="Const" version="opset1">
			<data element_type="f16" offset="124" shape="1,1,1,1" size="2"/>
			<output>
				<port id="0" precision="FP16">
					<dim>1</dim>
					<dim>1</dim>
					<dim>1</dim>
					<dim>1</dim>
				</port>
			</output>
		</layer>
		<layer id="127" name="5776578041850" type="Const" version="opset1">
			<data element_type="f16" offset="126" shape="1,1,1,1" size="2"/>
			<output>
				<port id="0" precision="FP16">
					<dim>1</dim>
					<dim>1</dim>
					<dim>1</dim>
					<dim>1</dim>
				</port>
			</output>
		</layer>
		<layer id="128" name="9913991739324" type="Const" version="opset1">
			<data element_type="f16" offset="128" shape="1,1,1,1" size="2"/>
			<output>
				<port id="0" precision="FP16">
					<dim>1</dim>
					<dim>1</dim>
					<dim>1</dim>
					<dim>1</dim>
				</port>
			</output>
		</layer>
		<layer id="129" name="9914991837860" type="Const" version="opset1">
			<data element_type="f16" offset="130" shape="1,1,1,1" size="2"/>
			<output>
				<port id="0" precision="FP16">
					<dim>1</dim>
					<dim>1</dim>
					<dim>1</dim>
					<dim>1</dim>
				</port>
			</output>
		</layer>
		<layer id="130" name="9915991937581" type="Const" version="opset1">
			<data element_type="f16" offset="128" shape="1,1,1,1" size="2"/>
			<output>
				<port id="0" precision="FP16">
					<dim>1</dim>
					<dim>1</dim>
					<dim>1</dim>
					<dim>1</dim>
				</port>
			</output>
		</layer>
		<layer id="131" name="9916992038295" type="Const" version="opset1">
			<data element_type="f16" offset="130" shape="1,1,1,1" size="2"/>
			<output>
				<port id="0" precision="FP16">
					<dim>1</dim>
					<dim>1</dim>
					<dim>1</dim>
					<dim>1</dim>
				</port>
			</output>
		</layer>
		<layer id="132" name="7763776736009" type="Const" version="opset1">
			<data element_type="f16" offset="132" shape="1,1,1,1" size="2"/>
			<output>
				<port id="0" precision="FP16">
					<dim>1</dim>
					<dim>1</dim>
					<dim>1</dim>
					<dim>1</dim>
				</port>
			</output>
		</layer>
		<layer id="133" name="7764776842033" type="Const" version="opset1">
			<data element_type="f16" offset="134" shape="1,1,1,1" size="2"/>
			<output>
				<port id="0" precision="FP16">
					<dim>1</dim>
					<dim>1</dim>
					<dim>1</dim>
					<dim>1</dim>
				</port>
			</output>
		</layer>
		<layer id="134" name="7765776938538" type="Const" version="opset1">
			<data element_type="f16" offset="132" shape="1,1,1,1" size="2"/>
			<output>
				<port id="0" precision="FP16">
					<dim>1</dim>
					<dim>1</dim>
					<dim>1</dim>
					<dim>1</dim>
				</port>
			</output>
		</layer>
		<layer id="135" name="7766777036876" type="Const" version="opset1">
			<data element_type="f16" offset="134" shape="1,1,1,1" size="2"/>
			<output>
				<port id="0" precision="FP16">
					<dim>1</dim>
					<dim>1</dim>
					<dim>1</dim>
					<dim>1</dim>
				</port>
			</output>
		</layer>
		<layer id="136" name="6923692740173" type="Const" version="opset1">
			<data element_type="f16" offset="136" shape="1,1,1,1" size="2"/>
			<output>
				<port id="0" precision="FP16">
					<dim>1</dim>
					<dim>1</dim>
					<dim>1</dim>
					<dim>1</dim>
				</port>
			</output>
		</layer>
		<layer id="137" name="6924692837359" type="Const" version="opset1">
			<data element_type="f16" offset="138" shape="1,1,1,1" size="2"/>
			<output>
				<port id="0" precision="FP16">
					<dim>1</dim>
					<dim>1</dim>
					<dim>1</dim>
					<dim>1</dim>
				</port>
			</output>
		</layer>
		<layer id="138" name="6925692939663" type="Const" version="opset1">
			<data element_type="f16" offset="136" shape="1,1,1,1" size="2"/>
			<output>
				<port id="0" precision="FP16">
					<dim>1</dim>
					<dim>1</dim>
					<dim>1</dim>
					<dim>1</dim>
				</port>
			</output>
		</layer>
		<layer id="139" name="6926693038469" type="Const" version="opset1">
			<data element_type="f16" offset="138" shape="1,1,1,1" size="2"/>
			<output>
				<port id="0" precision="FP16">
					<dim>1</dim>
					<dim>1</dim>
					<dim>1</dim>
					<dim>1</dim>
				</port>
			</output>
		</layer>
		<layer id="140" name="8413841738478" type="Const" version="opset1">
			<data element_type="f16" offset="140" shape="1,1,1,1" size="2"/>
			<output>
				<port id="0" precision="FP16">
					<dim>1</dim>
					<dim>1</dim>
					<dim>1</dim>
					<dim>1</dim>
				</port>
			</output>
		</layer>
		<layer id="141" name="8414841837425" type="Const" version="opset1">
			<data element_type="f16" offset="142" shape="1,1,1,1" size="2"/>
			<output>
				<port id="0" precision="FP16">
					<dim>1</dim>
					<dim>1</dim>
					<dim>1</dim>
					<dim>1</dim>
				</port>
			</output>
		</layer>
		<layer id="142" name="8415841937176" type="Const" version="opset1">
			<data element_type="f16" offset="140" shape="1,1,1,1" size="2"/>
			<output>
				<port id="0" precision="FP16">
					<dim>1</dim>
					<dim>1</dim>
					<dim>1</dim>
					<dim>1</dim>
				</port>
			</output>
		</layer>
		<layer id="143" name="8416842037953" type="Const" version="opset1">
			<data element_type="f16" offset="142" shape="1,1,1,1" size="2"/>
			<output>
				<port id="0" precision="FP16">
					<dim>1</dim>
					<dim>1</dim>
					<dim>1</dim>
					<dim>1</dim>
				</port>
			</output>
		</layer>
		<layer id="144" name="6183618736996" type="Const" version="opset1">
			<data element_type="f16" offset="144" shape="1,1,1,1" size="2"/>
			<output>
				<port id="0" precision="FP16">
					<dim>1</dim>
					<dim>1</dim>
					<dim>1</dim>
					<dim>1</dim>
				</port>
			</output>
		</layer>
		<layer id="145" name="6184618842150" type="Const" version="opset1">
			<data element_type="f16" offset="146" shape="1,1,1,1" size="2"/>
			<output>
				<port id="0" precision="FP16">
					<dim>1</dim>
					<dim>1</dim>
					<dim>1</dim>
					<dim>1</dim>
				</port>
			</output>
		</layer>
		<layer id="146" name="6185618941787" type="Const" version="opset1">
			<data element_type="f16" offset="144" shape="1,1,1,1" size="2"/>
			<output>
				<port id="0" precision="FP16">
					<dim>1</dim>
					<dim>1</dim>
					<dim>1</dim>
					<dim>1</dim>
				</port>
			</output>
		</layer>
		<layer id="147" name="6186619039813" type="Const" version="opset1">
			<data element_type="f16" offset="146" shape="1,1,1,1" size="2"/>
			<output>
				<port id="0" precision="FP16">
					<dim>1</dim>
					<dim>1</dim>
					<dim>1</dim>
					<dim>1</dim>
				</port>
			</output>
		</layer>
		<layer id="148" name="6203620737128" type="Const" version="opset1">
			<data element_type="f16" offset="148" shape="1,1,1,1" size="2"/>
			<output>
				<port id="0" precision="FP16">
					<dim>1</dim>
					<dim>1</dim>
					<dim>1</dim>
					<dim>1</dim>
				</port>
			</output>
		</layer>
		<layer id="149" name="6204620840488" type="Const" version="opset1">
			<data element_type="f16" offset="98" shape="1,1,1,1" size="2"/>
			<output>
				<port id="0" precision="FP16">
					<dim>1</dim>
					<dim>1</dim>
					<dim>1</dim>
					<dim>1</dim>
				</port>
			</output>
		</layer>
		<layer id="150" name="6205620942039" type="Const" version="opset1">
			<data element_type="f16" offset="148" shape="1,1,1,1" size="2"/>
			<output>
				<port id="0" precision="FP16">
					<dim>1</dim>
					<dim>1</dim>
					<dim>1</dim>
					<dim>1</dim>
				</port>
			</output>
		</layer>
		<layer id="151" name="6206621039615" type="Const" version="opset1">
			<data element_type="f16" offset="98" shape="1,1,1,1" size="2"/>
			<output>
				<port id="0" precision="FP16">
					<dim>1</dim>
					<dim>1</dim>
					<dim>1</dim>
					<dim>1</dim>
				</port>
			</output>
		</layer>
		<layer id="152" name="9843984742387" type="Const" version="opset1">
			<data element_type="f16" offset="150" shape="1,1,1,1" size="2"/>
			<output>
				<port id="0" precision="FP16">
					<dim>1</dim>
					<dim>1</dim>
					<dim>1</dim>
					<dim>1</dim>
				</port>
			</output>
		</layer>
		<layer id="153" name="9844984838265" type="Const" version="opset1">
			<data element_type="f16" offset="70" shape="1,1,1,1" size="2"/>
			<output>
				<port id="0" precision="FP16">
					<dim>1</dim>
					<dim>1</dim>
					<dim>1</dim>
					<dim>1</dim>
				</port>
			</output>
		</layer>
		<layer id="154" name="9845984938097" type="Const" version="opset1">
			<data element_type="f16" offset="150" shape="1,1,1,1" size="2"/>
			<output>
				<port id="0" precision="FP16">
					<dim>1</dim>
					<dim>1</dim>
					<dim>1</dim>
					<dim>1</dim>
				</port>
			</output>
		</layer>
		<layer id="155" name="9846985039015" type="Const" version="opset1">
			<data element_type="f16" offset="70" shape="1,1,1,1" size="2"/>
			<output>
				<port id="0" precision="FP16">
					<dim>1</dim>
					<dim>1</dim>
					<dim>1</dim>
					<dim>1</dim>
				</port>
			</output>
		</layer>
		<layer id="156" name="5653565739648" type="Const" version="opset1">
			<data element_type="f16" offset="152" shape="1,1,1,1" size="2"/>
			<output>
				<port id="0" precision="FP16">
					<dim>1</dim>
					<dim>1</dim>
					<dim>1</dim>
					<dim>1</dim>
				</port>
			</output>
		</layer>
		<layer id="157" name="5654565840788" type="Const" version="opset1">
			<data element_type="f16" offset="154" shape="1,1,1,1" size="2"/>
			<output>
				<port id="0" precision="FP16">
					<dim>1</dim>
					<dim>1</dim>
					<dim>1</dim>
					<dim>1</dim>
				</port>
			</output>
		</layer>
		<layer id="158" name="5655565937638" type="Const" version="opset1">
			<data element_type="f16" offset="152" shape="1,1,1,1" size="2"/>
			<output>
				<port id="0" precision="FP16">
					<dim>1</dim>
					<dim>1</dim>
					<dim>1</dim>
					<dim>1</dim>
				</port>
			</output>
		</layer>
		<layer id="159" name="5656566040632" type="Const" version="opset1">
			<data element_type="f16" offset="154" shape="1,1,1,1" size="2"/>
			<output>
				<port id="0" precision="FP16">
					<dim>1</dim>
					<dim>1</dim>
					<dim>1</dim>
					<dim>1</dim>
				</port>
			</output>
		</layer>
		<layer id="160" name="data" type="Parameter" version="opset1">
			<data element_type="f16" shape="1,3,400,680"/>
			<output>
				<port id="0" names="data" precision="FP16">
					<dim>1</dim>
					<dim>3</dim>
					<dim>400</dim>
					<dim>680</dim>
				</port>
			</output>
		</layer>
		<layer id="161" name="data_mul_43524137736501" type="Const" version="opset1">
			<data element_type="f16" offset="156" shape="1,3,1,1" size="6"/>
			<output>
				<port id="0" precision="FP16">
					<dim>1</dim>
					<dim>3</dim>
					<dim>1</dim>
					<dim>1</dim>
				</port>
			</output>
		</layer>
		<layer id="162" name="data/norm/bn/mean/Fused_Mul_" type="Multiply" version="opset1">
			<data auto_broadcast="numpy"/>
			<input>
				<port id="0">
					<dim>1</dim>
					<dim>3</dim>
					<dim>400</dim>
					<dim>680</dim>
				</port>
				<port id="1">
					<dim>1</dim>
					<dim>3</dim>
					<dim>1</dim>
					<dim>1</dim>
				</port>
			</input>
			<output>
				<port id="2" precision="FP16">
					<dim>1</dim>
					<dim>3</dim>
					<dim>400</dim>
					<dim>680</dim>
				</port>
			</output>
		</layer>
		<layer id="163" name="data_add_43526137938244" type="Const" version="opset1">
			<data element_type="f16" offset="162" shape="1,3,1,1" size="6"/>
			<output>
				<port id="0" precision="FP16">
					<dim>1</dim>
					<dim>3</dim>
					<dim>1</dim>
					<dim>1</dim>
				</port>
			</output>
		</layer>
		<layer id="164" name="data/norm/bn/variance/Fused_Add_" type="Add" version="opset1">
			<data auto_broadcast="numpy"/>
			<input>
				<port id="0">
					<dim>1</dim>
					<dim>3</dim>
					<dim>400</dim>
					<dim>680</dim>
				</port>
				<port id="1">
					<dim>1</dim>
					<dim>3</dim>
					<dim>1</dim>
					<dim>1</dim>
				</port>
			</input>
			<output>
				<port id="2" names="data/norm/bn" precision="FP16">
					<dim>1</dim>
					<dim>3</dim>
					<dim>400</dim>
					<dim>680</dim>
				</port>
			</output>
		</layer>
		<layer id="165" name="init_block1/dim_inc/conv/fq_input_0" type="FakeQuantize" version="opset1">
			<data auto_broadcast="numpy" levels="256"/>
			<input>
				<port id="0">
					<dim>1</dim>
					<dim>3</dim>
					<dim>400</dim>
					<dim>680</dim>
				</port>
				<port id="1">
					<dim>1</dim>
					<dim>1</dim>
					<dim>1</dim>
					<dim>1</dim>
				</port>
				<port id="2">
					<dim>1</dim>
					<dim>1</dim>
					<dim>1</dim>
					<dim>1</dim>
				</port>
				<port id="3">
					<dim>1</dim>
					<dim>1</dim>
					<dim>1</dim>
					<dim>1</dim>
				</port>
				<port id="4">
					<dim>1</dim>
					<dim>1</dim>
					<dim>1</dim>
					<dim>1</dim>
				</port>
			</input>
			<output>
				<port id="5" precision="FP16">
					<dim>1</dim>
					<dim>3</dim>
					<dim>400</dim>
					<dim>680</dim>
				</port>
			</output>
		</layer>
		<layer id="166" name="init_block1/dim_inc/bn/mean/Fused_Mul__copy138118784/quantized2221742588" type="Const" version="opset1">
			<data element_type="i8" offset="168" shape="32,3,3,3" size="864"/>
			<output>
				<port id="0" precision="I8">
					<dim>32</dim>
					<dim>3</dim>
					<dim>3</dim>
					<dim>3</dim>
				</port>
			</output>
		</layer>
		<layer id="167" name="init_block1/dim_inc/bn/mean/Fused_Mul__copy138118784/quantized/to_f16" type="Convert" version="opset1">
			<data destination_type="f16"/>
			<input>
				<port id="0">
					<dim>32</dim>
					<dim>3</dim>
					<dim>3</dim>
					<dim>3</dim>
				</port>
			</input>
			<output>
				<port id="1" precision="FP16">
					<dim>32</dim>
					<dim>3</dim>
					<dim>3</dim>
					<dim>3</dim>
				</port>
			</output>
		</layer>
		<layer id="168" name="init_block1/dim_inc/conv/fq_weights_1/zero_point2223040104" type="Const" version="opset1">
			<data element_type="f16" offset="1032" shape="32,1,1,1" size="64"/>
			<output>
				<port id="0" precision="FP16">
					<dim>32</dim>
					<dim>1</dim>
					<dim>1</dim>
					<dim>1</dim>
				</port>
			</output>
		</layer>
		<layer id="169" name="init_block1/dim_inc/conv/fq_weights_1/minus_zp" type="Subtract" version="opset1">
			<data auto_broadcast="numpy"/>
			<input>
				<port id="0">
					<dim>32</dim>
					<dim>3</dim>
					<dim>3</dim>
					<dim>3</dim>
				</port>
				<port id="1">
					<dim>32</dim>
					<dim>1</dim>
					<dim>1</dim>
					<dim>1</dim>
				</port>
			</input>
			<output>
				<port id="2" precision="FP16">
					<dim>32</dim>
					<dim>3</dim>
					<dim>3</dim>
					<dim>3</dim>
				</port>
			</output>
		</layer>
		<layer id="170" name="init_block1/dim_inc/conv/fq_weights_1/scale2222537587" type="Const" version="opset1">
			<data element_type="f16" offset="1096" shape="32,1,1,1" size="64"/>
			<output>
				<port id="0" precision="FP16">
					<dim>32</dim>
					<dim>1</dim>
					<dim>1</dim>
					<dim>1</dim>
				</port>
			</output>
		</layer>
		<layer id="171" name="init_block1/dim_inc/conv/fq_weights_1/mulpiply_by_scale" type="Multiply" version="opset1">
			<data auto_broadcast="numpy"/>
			<input>
				<port id="0">
					<dim>32</dim>
					<dim>3</dim>
					<dim>3</dim>
					<dim>3</dim>
				</port>
				<port id="1">
					<dim>32</dim>
					<dim>1</dim>
					<dim>1</dim>
					<dim>1</dim>
				</port>
			</input>
			<output>
				<port id="2" precision="FP16">
					<dim>32</dim>
					<dim>3</dim>
					<dim>3</dim>
					<dim>3</dim>
				</port>
			</output>
		</layer>
		<layer id="172" name="init_block1/dim_inc/conv" type="Convolution" version="opset1">
			<data auto_pad="explicit" dilations="1,1" pads_begin="1,1" pads_end="1,1" strides="2,2"/>
			<input>
				<port id="0">
					<dim>1</dim>
					<dim>3</dim>
					<dim>400</dim>
					<dim>680</dim>
				</port>
				<port id="1">
					<dim>32</dim>
					<dim>3</dim>
					<dim>3</dim>
					<dim>3</dim>
				</port>
			</input>
			<output>
				<port id="2" precision="FP16">
					<dim>1</dim>
					<dim>32</dim>
					<dim>200</dim>
					<dim>340</dim>
				</port>
			</output>
		</layer>
		<layer id="173" name="data_add_4352943534138337182" type="Const" version="opset1">
			<data element_type="f16" offset="1160" shape="1,32,1,1" size="64"/>
			<output>
				<port id="0" precision="FP16">
					<dim>1</dim>
					<dim>32</dim>
					<dim>1</dim>
					<dim>1</dim>
				</port>
			</output>
		</layer>
		<layer id="174" name="init_block1/dim_inc/bn/variance/Fused_Add_" type="Add" version="opset1">
			<data auto_broadcast="numpy"/>
			<input>
				<port id="0">
					<dim>1</dim>
					<dim>32</dim>
					<dim>200</dim>
					<dim>340</dim>
				</port>
				<port id="1">
					<dim>1</dim>
					<dim>32</dim>
					<dim>1</dim>
					<dim>1</dim>
				</port>
			</input>
			<output>
				<port id="2" names="init_block1/dim_inc/conv" precision="FP16">
					<dim>1</dim>
					<dim>32</dim>
					<dim>200</dim>
					<dim>340</dim>
				</port>
			</output>
		</layer>
		<layer id="175" name="init_block1/dim_inc/fn" type="ReLU" version="opset1">
			<input>
				<port id="0">
					<dim>1</dim>
					<dim>32</dim>
					<dim>200</dim>
					<dim>340</dim>
				</port>
			</input>
			<output>
				<port id="1" names="init_block1/dim_inc/conv" precision="FP16">
					<dim>1</dim>
					<dim>32</dim>
					<dim>200</dim>
					<dim>340</dim>
				</port>
			</output>
		</layer>
		<layer id="176" name="bottleneck1_1/add/fq_input_0" type="FakeQuantize" version="opset1">
			<data auto_broadcast="numpy" levels="256"/>
			<input>
				<port id="0">
					<dim>1</dim>
					<dim>32</dim>
					<dim>200</dim>
					<dim>340</dim>
				</port>
				<port id="1">
					<dim>1</dim>
					<dim>1</dim>
					<dim>1</dim>
					<dim>1</dim>
				</port>
				<port id="2">
					<dim>1</dim>
					<dim>1</dim>
					<dim>1</dim>
					<dim>1</dim>
				</port>
				<port id="3">
					<dim>1</dim>
					<dim>1</dim>
					<dim>1</dim>
					<dim>1</dim>
				</port>
				<port id="4">
					<dim>1</dim>
					<dim>1</dim>
					<dim>1</dim>
					<dim>1</dim>
				</port>
			</input>
			<output>
				<port id="5" precision="FP16">
					<dim>1</dim>
					<dim>32</dim>
					<dim>200</dim>
					<dim>340</dim>
				</port>
			</output>
		</layer>
		<layer id="177" name="9853985741481" type="Const" version="opset1">
			<data element_type="f16" offset="1224" shape="1,1,1,1" size="2"/>
			<output>
				<port id="0" precision="FP16">
					<dim>1</dim>
					<dim>1</dim>
					<dim>1</dim>
					<dim>1</dim>
				</port>
			</output>
		</layer>
		<layer id="178" name="9854985841931" type="Const" version="opset1">
			<data element_type="f16" offset="1226" shape="1,1,1,1" size="2"/>
			<output>
				<port id="0" precision="FP16">
					<dim>1</dim>
					<dim>1</dim>
					<dim>1</dim>
					<dim>1</dim>
				</port>
			</output>
		</layer>
		<layer id="179" name="9855985937671" type="Const" version="opset1">
			<data element_type="f16" offset="1224" shape="1,1,1,1" size="2"/>
			<output>
				<port id="0" precision="FP16">
					<dim>1</dim>
					<dim>1</dim>
					<dim>1</dim>
					<dim>1</dim>
				</port>
			</output>
		</layer>
		<layer id="180" name="9856986038406" type="Const" version="opset1">
			<data element_type="f16" offset="1226" shape="1,1,1,1" size="2"/>
			<output>
				<port id="0" precision="FP16">
					<dim>1</dim>
					<dim>1</dim>
					<dim>1</dim>
					<dim>1</dim>
				</port>
			</output>
		</layer>
		<layer id="181" name="5893589737806" type="Const" version="opset1">
			<data element_type="f16" offset="1228" shape="1,1,1,1" size="2"/>
			<output>
				<port id="0" precision="FP16">
					<dim>1</dim>
					<dim>1</dim>
					<dim>1</dim>
					<dim>1</dim>
				</port>
			</output>
		</layer>
		<layer id="182" name="5894589839129" type="Const" version="opset1">
			<data element_type="f16" offset="1230" shape="1,1,1,1" size="2"/>
			<output>
				<port id="0" precision="FP16">
					<dim>1</dim>
					<dim>1</dim>
					<dim>1</dim>
					<dim>1</dim>
				</port>
			</output>
		</layer>
		<layer id="183" name="5895589936216" type="Const" version="opset1">
			<data element_type="f16" offset="1228" shape="1,1,1,1" size="2"/>
			<output>
				<port id="0" precision="FP16">
					<dim>1</dim>
					<dim>1</dim>
					<dim>1</dim>
					<dim>1</dim>
				</port>
			</output>
		</layer>
		<layer id="184" name="5896590039273" type="Const" version="opset1">
			<data element_type="f16" offset="1230" shape="1,1,1,1" size="2"/>
			<output>
				<port id="0" precision="FP16">
					<dim>1</dim>
					<dim>1</dim>
					<dim>1</dim>
					<dim>1</dim>
				</port>
			</output>
		</layer>
		<layer id="185" name="9363936741865" type="Const" version="opset1">
			<data element_type="f16" offset="1232" shape="1,8,1,1" size="16"/>
			<output>
				<port id="0" precision="FP16">
					<dim>1</dim>
					<dim>8</dim>
					<dim>1</dim>
					<dim>1</dim>
				</port>
			</output>
		</layer>
		<layer id="186" name="9364936837614" type="Const" version="opset1">
			<data element_type="f16" offset="1248" shape="1,8,1,1" size="16"/>
			<output>
				<port id="0" precision="FP16">
					<dim>1</dim>
					<dim>8</dim>
					<dim>1</dim>
					<dim>1</dim>
				</port>
			</output>
		</layer>
		<layer id="187" name="9365936936786" type="Const" version="opset1">
			<data element_type="f16" offset="1232" shape="1,8,1,1" size="16"/>
			<output>
				<port id="0" precision="FP16">
					<dim>1</dim>
					<dim>8</dim>
					<dim>1</dim>
					<dim>1</dim>
				</port>
			</output>
		</layer>
		<layer id="188" name="9366937041130" type="Const" version="opset1">
			<data element_type="f16" offset="1248" shape="1,8,1,1" size="16"/>
			<output>
				<port id="0" precision="FP16">
					<dim>1</dim>
					<dim>8</dim>
					<dim>1</dim>
					<dim>1</dim>
				</port>
			</output>
		</layer>
		<layer id="189" name="bottleneck1_1/dim_red/bn/mean/Fused_Mul__copy138618786/quantized2581739657" type="Const" version="opset1">
			<data element_type="i8" offset="1264" shape="8,32,1,1" size="256"/>
			<output>
				<port id="0" precision="I8">
					<dim>8</dim>
					<dim>32</dim>
					<dim>1</dim>
					<dim>1</dim>
				</port>
			</output>
		</layer>
		<layer id="190" name="bottleneck1_1/dim_red/bn/mean/Fused_Mul__copy138618786/quantized/to_f16" type="Convert" version="opset1">
			<data destination_type="f16"/>
			<input>
				<port id="0">
					<dim>8</dim>
					<dim>32</dim>
					<dim>1</dim>
					<dim>1</dim>
				</port>
			</input>
			<output>
				<port id="1" precision="FP16">
					<dim>8</dim>
					<dim>32</dim>
					<dim>1</dim>
					<dim>1</dim>
				</port>
			</output>
		</layer>
		<layer id="191" name="bottleneck1_1/dim_red/conv/fq_weights_1/zero_point2583042288" type="Const" version="opset1">
			<data element_type="f16" offset="1520" shape="8,1,1,1" size="16"/>
			<output>
				<port id="0" precision="FP16">
					<dim>8</dim>
					<dim>1</dim>
					<dim>1</dim>
					<dim>1</dim>
				</port>
			</output>
		</layer>
		<layer id="192" name="bottleneck1_1/dim_red/conv/fq_weights_1/minus_zp" type="Subtract" version="opset1">
			<data auto_broadcast="numpy"/>
			<input>
				<port id="0">
					<dim>8</dim>
					<dim>32</dim>
					<dim>1</dim>
					<dim>1</dim>
				</port>
				<port id="1">
					<dim>8</dim>
					<dim>1</dim>
					<dim>1</dim>
					<dim>1</dim>
				</port>
			</input>
			<output>
				<port id="2" precision="FP16">
					<dim>8</dim>
					<dim>32</dim>
					<dim>1</dim>
					<dim>1</dim>
				</port>
			</output>
		</layer>
		<layer id="193" name="bottleneck1_1/dim_red/conv/fq_weights_1/scale2582538037" type="Const" version="opset1">
			<data element_type="f16" offset="1536" shape="8,1,1,1" size="16"/>
			<output>
				<port id="0" precision="FP16">
					<dim>8</dim>
					<dim>1</dim>
					<dim>1</dim>
					<dim>1</dim>
				</port>
			</output>
		</layer>
		<layer id="194" name="bottleneck1_1/dim_red/conv/fq_weights_1/mulpiply_by_scale" type="Multiply" version="opset1">
			<data auto_broadcast="numpy"/>
			<input>
				<port id="0">
					<dim>8</dim>
					<dim>32</dim>
					<dim>1</dim>
					<dim>1</dim>
				</port>
				<port id="1">
					<dim>8</dim>
					<dim>1</dim>
					<dim>1</dim>
					<dim>1</dim>
				</port>
			</input>
			<output>
				<port id="2" precision="FP16">
					<dim>8</dim>
					<dim>32</dim>
					<dim>1</dim>
					<dim>1</dim>
				</port>
			</output>
		</layer>
		<layer id="195" name="bottleneck1_1/dim_red/conv" type="Convolution" version="opset1">
			<data auto_pad="explicit" dilations="1,1" pads_begin="0,0" pads_end="0,0" strides="1,1"/>
			<input>
				<port id="0">
					<dim>1</dim>
					<dim>32</dim>
					<dim>200</dim>
					<dim>340</dim>
				</port>
				<port id="1">
					<dim>8</dim>
					<dim>32</dim>
					<dim>1</dim>
					<dim>1</dim>
				</port>
			</input>
			<output>
				<port id="2" precision="FP16">
					<dim>1</dim>
					<dim>8</dim>
					<dim>200</dim>
					<dim>340</dim>
				</port>
			</output>
		</layer>
		<layer id="196" name="data_add_4353743542138837269" type="Const" version="opset1">
			<data element_type="f16" offset="1552" shape="1,8,1,1" size="16"/>
			<output>
				<port id="0" precision="FP16">
					<dim>1</dim>
					<dim>8</dim>
					<dim>1</dim>
					<dim>1</dim>
				</port>
			</output>
		</layer>
		<layer id="197" name="bottleneck1_1/dim_red/bn/variance/Fused_Add_" type="Add" version="opset1">
			<data auto_broadcast="numpy"/>
			<input>
				<port id="0">
					<dim>1</dim>
					<dim>8</dim>
					<dim>200</dim>
					<dim>340</dim>
				</port>
				<port id="1">
					<dim>1</dim>
					<dim>8</dim>
					<dim>1</dim>
					<dim>1</dim>
				</port>
			</input>
			<output>
				<port id="2" names="bottleneck1_1/dim_red/conv" precision="FP16">
					<dim>1</dim>
					<dim>8</dim>
					<dim>200</dim>
					<dim>340</dim>
				</port>
			</output>
		</layer>
		<layer id="198" name="bottleneck1_1/dim_red/fn/weights56981731781390" type="Const" version="opset1">
			<data element_type="f32" offset="1568" shape="1" size="4"/>
			<output>
				<port id="0" precision="FP32">
					<dim>1</dim>
				</port>
			</output>
		</layer>
		<layer id="199" name="bottleneck1_1/dim_red/fn" type="PReLU" version="opset1">
			<input>
				<port id="0">
					<dim>1</dim>
					<dim>8</dim>
					<dim>200</dim>
					<dim>340</dim>
				</port>
				<port id="1">
					<dim>1</dim>
				</port>
			</input>
			<output>
				<port id="2" names="bottleneck1_1/dim_red/conv" precision="FP16">
					<dim>1</dim>
					<dim>8</dim>
					<dim>200</dim>
					<dim>340</dim>
				</port>
			</output>
		</layer>
		<layer id="200" name="bottleneck1_1/inner/dw1/conv/fq_input_0" type="FakeQuantize" version="opset1">
			<data auto_broadcast="numpy" levels="256"/>
			<input>
				<port id="0">
					<dim>1</dim>
					<dim>8</dim>
					<dim>200</dim>
					<dim>340</dim>
				</port>
				<port id="1">
					<dim>1</dim>
					<dim>8</dim>
					<dim>1</dim>
					<dim>1</dim>
				</port>
				<port id="2">
					<dim>1</dim>
					<dim>8</dim>
					<dim>1</dim>
					<dim>1</dim>
				</port>
				<port id="3">
					<dim>1</dim>
					<dim>8</dim>
					<dim>1</dim>
					<dim>1</dim>
				</port>
				<port id="4">
					<dim>1</dim>
					<dim>8</dim>
					<dim>1</dim>
					<dim>1</dim>
				</port>
			</input>
			<output>
				<port id="5" precision="FP16">
					<dim>1</dim>
					<dim>8</dim>
					<dim>200</dim>
					<dim>340</dim>
				</port>
			</output>
		</layer>
		<layer id="201" name="31448/value3145042126" type="Const" version="opset1">
			<data element_type="i64" offset="1572" shape="5" size="40"/>
			<output>
				<port id="0" precision="I64">
					<dim>5</dim>
				</port>
			</output>
		</layer>
		<layer id="202" name="bottleneck1_1/inner/dw1/bn/mean/Fused_Mul__copy139218789/quantized2502537179" type="Const" version="opset1">
			<data element_type="i8" offset="1612" shape="8,1,3,3" size="72"/>
			<output>
				<port id="0" precision="I8">
					<dim>8</dim>
					<dim>1</dim>
					<dim>3</dim>
					<dim>3</dim>
				</port>
			</output>
		</layer>
		<layer id="203" name="bottleneck1_1/inner/dw1/bn/mean/Fused_Mul__copy139218789/quantized/to_f16" type="Convert" version="opset1">
			<data destination_type="f16"/>
			<input>
				<port id="0">
					<dim>8</dim>
					<dim>1</dim>
					<dim>3</dim>
					<dim>3</dim>
				</port>
			</input>
			<output>
				<port id="1" precision="FP16">
					<dim>8</dim>
					<dim>1</dim>
					<dim>3</dim>
					<dim>3</dim>
				</port>
			</output>
		</layer>
		<layer id="204" name="bottleneck1_1/inner/dw1/conv/fq_weights_1/zero_point2503840596" type="Const" version="opset1">
			<data element_type="f16" offset="1684" shape="8,1,1,1" size="16"/>
			<output>
				<port id="0" precision="FP16">
					<dim>8</dim>
					<dim>1</dim>
					<dim>1</dim>
					<dim>1</dim>
				</port>
			</output>
		</layer>
		<layer id="205" name="bottleneck1_1/inner/dw1/conv/fq_weights_1/minus_zp" type="Subtract" version="opset1">
			<data auto_broadcast="numpy"/>
			<input>
				<port id="0">
					<dim>8</dim>
					<dim>1</dim>
					<dim>3</dim>
					<dim>3</dim>
				</port>
				<port id="1">
					<dim>8</dim>
					<dim>1</dim>
					<dim>1</dim>
					<dim>1</dim>
				</port>
			</input>
			<output>
				<port id="2" precision="FP16">
					<dim>8</dim>
					<dim>1</dim>
					<dim>3</dim>
					<dim>3</dim>
				</port>
			</output>
		</layer>
		<layer id="206" name="bottleneck1_1/inner/dw1/conv/fq_weights_1/scale2503336948" type="Const" version="opset1">
			<data element_type="f16" offset="1700" shape="8,1,1,1" size="16"/>
			<output>
				<port id="0" precision="FP16">
					<dim>8</dim>
					<dim>1</dim>
					<dim>1</dim>
					<dim>1</dim>
				</port>
			</output>
		</layer>
		<layer id="207" name="bottleneck1_1/inner/dw1/conv/fq_weights_1/mulpiply_by_scale" type="Multiply" version="opset1">
			<data auto_broadcast="numpy"/>
			<input>
				<port id="0">
					<dim>8</dim>
					<dim>1</dim>
					<dim>3</dim>
					<dim>3</dim>
				</port>
				<port id="1">
					<dim>8</dim>
					<dim>1</dim>
					<dim>1</dim>
					<dim>1</dim>
				</port>
			</input>
			<output>
				<port id="2" precision="FP16">
					<dim>8</dim>
					<dim>1</dim>
					<dim>3</dim>
					<dim>3</dim>
				</port>
			</output>
		</layer>
		<layer id="208" name="31448" type="Reshape" version="opset1">
			<data special_zero="true"/>
			<input>
				<port id="0">
					<dim>8</dim>
					<dim>1</dim>
					<dim>3</dim>
					<dim>3</dim>
				</port>
				<port id="1">
					<dim>5</dim>
				</port>
			</input>
			<output>
				<port id="2" precision="FP16">
					<dim>8</dim>
					<dim>1</dim>
					<dim>1</dim>
					<dim>3</dim>
					<dim>3</dim>
				</port>
			</output>
		</layer>
		<layer id="209" name="bottleneck1_1/inner/dw1/conv" type="GroupConvolution" version="opset1">
			<data auto_pad="explicit" dilations="1,1" pads_begin="1,1" pads_end="1,1" strides="1,1"/>
			<input>
				<port id="0">
					<dim>1</dim>
					<dim>8</dim>
					<dim>200</dim>
					<dim>340</dim>
				</port>
				<port id="1">
					<dim>8</dim>
					<dim>1</dim>
					<dim>1</dim>
					<dim>3</dim>
					<dim>3</dim>
				</port>
			</input>
			<output>
				<port id="2" precision="FP16">
					<dim>1</dim>
					<dim>8</dim>
					<dim>200</dim>
					<dim>340</dim>
				</port>
			</output>
		</layer>
		<layer id="210" name="data_add_4354543550139437764" type="Const" version="opset1">
			<data element_type="f16" offset="1716" shape="1,8,1,1" size="16"/>
			<output>
				<port id="0" precision="FP16">
					<dim>1</dim>
					<dim>8</dim>
					<dim>1</dim>
					<dim>1</dim>
				</port>
			</output>
		</layer>
		<layer id="211" name="bottleneck1_1/inner/dw1/bn/variance/Fused_Add_" type="Add" version="opset1">
			<data auto_broadcast="numpy"/>
			<input>
				<port id="0">
					<dim>1</dim>
					<dim>8</dim>
					<dim>200</dim>
					<dim>340</dim>
				</port>
				<port id="1">
					<dim>1</dim>
					<dim>8</dim>
					<dim>1</dim>
					<dim>1</dim>
				</port>
			</input>
			<output>
				<port id="2" names="bottleneck1_1/inner/dw1/conv" precision="FP16">
					<dim>1</dim>
					<dim>8</dim>
					<dim>200</dim>
					<dim>340</dim>
				</port>
			</output>
		</layer>
		<layer id="212" name="bottleneck1_1/inner/dw1/fn/weights57065743751396" type="Const" version="opset1">
			<data element_type="f32" offset="1568" shape="1" size="4"/>
			<output>
				<port id="0" precision="FP32">
					<dim>1</dim>
				</port>
			</output>
		</layer>
		<layer id="213" name="bottleneck1_1/inner/dw1/fn" type="PReLU" version="opset1">
			<input>
				<port id="0">
					<dim>1</dim>
					<dim>8</dim>
					<dim>200</dim>
					<dim>340</dim>
				</port>
				<port id="1">
					<dim>1</dim>
				</port>
			</input>
			<output>
				<port id="2" names="bottleneck1_1/inner/dw1/conv" precision="FP16">
					<dim>1</dim>
					<dim>8</dim>
					<dim>200</dim>
					<dim>340</dim>
				</port>
			</output>
		</layer>
		<layer id="214" name="bottleneck1_1/dim_inc/conv/fq_input_0" type="FakeQuantize" version="opset1">
			<data auto_broadcast="numpy" levels="256"/>
			<input>
				<port id="0">
					<dim>1</dim>
					<dim>8</dim>
					<dim>200</dim>
					<dim>340</dim>
				</port>
				<port id="1">
					<dim>1</dim>
					<dim>1</dim>
					<dim>1</dim>
					<dim>1</dim>
				</port>
				<port id="2">
					<dim>1</dim>
					<dim>1</dim>
					<dim>1</dim>
					<dim>1</dim>
				</port>
				<port id="3">
					<dim>1</dim>
					<dim>1</dim>
					<dim>1</dim>
					<dim>1</dim>
				</port>
				<port id="4">
					<dim>1</dim>
					<dim>1</dim>
					<dim>1</dim>
					<dim>1</dim>
				</port>
			</input>
			<output>
				<port id="5" precision="FP16">
					<dim>1</dim>
					<dim>8</dim>
					<dim>200</dim>
					<dim>340</dim>
				</port>
			</output>
		</layer>
		<layer id="215" name="bottleneck1_1/dim_inc/bn/mean/Fused_Mul__copy139818792/quantized2488140053" type="Const" version="opset1">
			<data element_type="i8" offset="1732" shape="32,8,1,1" size="256"/>
			<output>
				<port id="0" precision="I8">
					<dim>32</dim>
					<dim>8</dim>
					<dim>1</dim>
					<dim>1</dim>
				</port>
			</output>
		</layer>
		<layer id="216" name="bottleneck1_1/dim_inc/bn/mean/Fused_Mul__copy139818792/quantized/to_f16" type="Convert" version="opset1">
			<data destination_type="f16"/>
			<input>
				<port id="0">
					<dim>32</dim>
					<dim>8</dim>
					<dim>1</dim>
					<dim>1</dim>
				</port>
			</input>
			<output>
				<port id="1" precision="FP16">
					<dim>32</dim>
					<dim>8</dim>
					<dim>1</dim>
					<dim>1</dim>
				</port>
			</output>
		</layer>
		<layer id="217" name="bottleneck1_1/dim_inc/conv/fq_weights_1/zero_point2489442528" type="Const" version="opset1">
			<data element_type="f16" offset="1988" shape="32,1,1,1" size="64"/>
			<output>
				<port id="0" precision="FP16">
					<dim>32</dim>
					<dim>1</dim>
					<dim>1</dim>
					<dim>1</dim>
				</port>
			</output>
		</layer>
		<layer id="218" name="bottleneck1_1/dim_inc/conv/fq_weights_1/minus_zp" type="Subtract" version="opset1">
			<data auto_broadcast="numpy"/>
			<input>
				<port id="0">
					<dim>32</dim>
					<dim>8</dim>
					<dim>1</dim>
					<dim>1</dim>
				</port>
				<port id="1">
					<dim>32</dim>
					<dim>1</dim>
					<dim>1</dim>
					<dim>1</dim>
				</port>
			</input>
			<output>
				<port id="2" precision="FP16">
					<dim>32</dim>
					<dim>8</dim>
					<dim>1</dim>
					<dim>1</dim>
				</port>
			</output>
		</layer>
		<layer id="219" name="bottleneck1_1/dim_inc/conv/fq_weights_1/scale2488939060" type="Const" version="opset1">
			<data element_type="f16" offset="2052" shape="32,1,1,1" size="64"/>
			<output>
				<port id="0" precision="FP16">
					<dim>32</dim>
					<dim>1</dim>
					<dim>1</dim>
					<dim>1</dim>
				</port>
			</output>
		</layer>
		<layer id="220" name="bottleneck1_1/dim_inc/conv/fq_weights_1/mulpiply_by_scale" type="Multiply" version="opset1">
			<data auto_broadcast="numpy"/>
			<input>
				<port id="0">
					<dim>32</dim>
					<dim>8</dim>
					<dim>1</dim>
					<dim>1</dim>
				</port>
				<port id="1">
					<dim>32</dim>
					<dim>1</dim>
					<dim>1</dim>
					<dim>1</dim>
				</port>
			</input>
			<output>
				<port id="2" precision="FP16">
					<dim>32</dim>
					<dim>8</dim>
					<dim>1</dim>
					<dim>1</dim>
				</port>
			</output>
		</layer>
		<layer id="221" name="bottleneck1_1/dim_inc/conv" type="Convolution" version="opset1">
			<data auto_pad="explicit" dilations="1,1" pads_begin="0,0" pads_end="0,0" strides="1,1"/>
			<input>
				<port id="0">
					<dim>1</dim>
					<dim>8</dim>
					<dim>200</dim>
					<dim>340</dim>
				</port>
				<port id="1">
					<dim>32</dim>
					<dim>8</dim>
					<dim>1</dim>
					<dim>1</dim>
				</port>
			</input>
			<output>
				<port id="2" precision="FP16">
					<dim>1</dim>
					<dim>32</dim>
					<dim>200</dim>
					<dim>340</dim>
				</port>
			</output>
		</layer>
		<layer id="222" name="data_add_4355343558140039240" type="Const" version="opset1">
			<data element_type="f16" offset="2116" shape="1,32,1,1" size="64"/>
			<output>
				<port id="0" precision="FP16">
					<dim>1</dim>
					<dim>32</dim>
					<dim>1</dim>
					<dim>1</dim>
				</port>
			</output>
		</layer>
		<layer id="223" name="bottleneck1_1/dim_inc/bn/variance/Fused_Add_" type="Add" version="opset1">
			<data auto_broadcast="numpy"/>
			<input>
				<port id="0">
					<dim>1</dim>
					<dim>32</dim>
					<dim>200</dim>
					<dim>340</dim>
				</port>
				<port id="1">
					<dim>1</dim>
					<dim>32</dim>
					<dim>1</dim>
					<dim>1</dim>
				</port>
			</input>
			<output>
				<port id="2" names="bottleneck1_1/dim_inc/conv,bottleneck1_1/dim_inc/dropout" precision="FP16">
					<dim>1</dim>
					<dim>32</dim>
					<dim>200</dim>
					<dim>340</dim>
				</port>
			</output>
		</layer>
		<layer id="224" name="bottleneck1_1/add/fq_input_1" type="FakeQuantize" version="opset1">
			<data auto_broadcast="numpy" levels="256"/>
			<input>
				<port id="0">
					<dim>1</dim>
					<dim>32</dim>
					<dim>200</dim>
					<dim>340</dim>
				</port>
				<port id="1">
					<dim>1</dim>
					<dim>1</dim>
					<dim>1</dim>
					<dim>1</dim>
				</port>
				<port id="2">
					<dim>1</dim>
					<dim>1</dim>
					<dim>1</dim>
					<dim>1</dim>
				</port>
				<port id="3">
					<dim>1</dim>
					<dim>1</dim>
					<dim>1</dim>
					<dim>1</dim>
				</port>
				<port id="4">
					<dim>1</dim>
					<dim>1</dim>
					<dim>1</dim>
					<dim>1</dim>
				</port>
			</input>
			<output>
				<port id="5" precision="FP16">
					<dim>1</dim>
					<dim>32</dim>
					<dim>200</dim>
					<dim>340</dim>
				</port>
			</output>
		</layer>
		<layer id="225" name="bottleneck1_1/add" type="Add" version="opset1">
			<data auto_broadcast="numpy"/>
			<input>
				<port id="0">
					<dim>1</dim>
					<dim>32</dim>
					<dim>200</dim>
					<dim>340</dim>
				</port>
				<port id="1">
					<dim>1</dim>
					<dim>32</dim>
					<dim>200</dim>
					<dim>340</dim>
				</port>
			</input>
			<output>
				<port id="2" names="bottleneck1_1/add" precision="FP16">
					<dim>1</dim>
					<dim>32</dim>
					<dim>200</dim>
					<dim>340</dim>
				</port>
			</output>
		</layer>
		<layer id="226" name="bottleneck1_1/fn/weights57365738051403" type="Const" version="opset1">
			<data element_type="f32" offset="1568" shape="1" size="4"/>
			<output>
				<port id="0" precision="FP32">
					<dim>1</dim>
				</port>
			</output>
		</layer>
		<layer id="227" name="bottleneck1_1/fn" type="PReLU" version="opset1">
			<input>
				<port id="0">
					<dim>1</dim>
					<dim>32</dim>
					<dim>200</dim>
					<dim>340</dim>
				</port>
				<port id="1">
					<dim>1</dim>
				</port>
			</input>
			<output>
				<port id="2" names="bottleneck1_1/add" precision="FP16">
					<dim>1</dim>
					<dim>32</dim>
					<dim>200</dim>
					<dim>340</dim>
				</port>
			</output>
		</layer>
		<layer id="228" name="bottleneck1_2/add/fq_input_0" type="FakeQuantize" version="opset1">
			<data auto_broadcast="numpy" levels="256"/>
			<input>
				<port id="0">
					<dim>1</dim>
					<dim>32</dim>
					<dim>200</dim>
					<dim>340</dim>
				</port>
				<port id="1">
					<dim>1</dim>
					<dim>1</dim>
					<dim>1</dim>
					<dim>1</dim>
				</port>
				<port id="2">
					<dim>1</dim>
					<dim>1</dim>
					<dim>1</dim>
					<dim>1</dim>
				</port>
				<port id="3">
					<dim>1</dim>
					<dim>1</dim>
					<dim>1</dim>
					<dim>1</dim>
				</port>
				<port id="4">
					<dim>1</dim>
					<dim>1</dim>
					<dim>1</dim>
					<dim>1</dim>
				</port>
			</input>
			<output>
				<port id="5" precision="FP16">
					<dim>1</dim>
					<dim>32</dim>
					<dim>200</dim>
					<dim>340</dim>
				</port>
			</output>
		</layer>
		<layer id="229" name="6213621739483" type="Const" version="opset1">
			<data element_type="f16" offset="2180" shape="1,1,1,1" size="2"/>
			<output>
				<port id="0" precision="FP16">
					<dim>1</dim>
					<dim>1</dim>
					<dim>1</dim>
					<dim>1</dim>
				</port>
			</output>
		</layer>
		<layer id="230" name="6214621837275" type="Const" version="opset1">
			<data element_type="f16" offset="2182" shape="1,1,1,1" size="2"/>
			<output>
				<port id="0" precision="FP16">
					<dim>1</dim>
					<dim>1</dim>
					<dim>1</dim>
					<dim>1</dim>
				</port>
			</output>
		</layer>
		<layer id="231" name="6215621941607" type="Const" version="opset1">
			<data element_type="f16" offset="2180" shape="1,1,1,1" size="2"/>
			<output>
				<port id="0" precision="FP16">
					<dim>1</dim>
					<dim>1</dim>
					<dim>1</dim>
					<dim>1</dim>
				</port>
			</output>
		</layer>
		<layer id="232" name="6216622039873" type="Const" version="opset1">
			<data element_type="f16" offset="2182" shape="1,1,1,1" size="2"/>
			<output>
				<port id="0" precision="FP16">
					<dim>1</dim>
					<dim>1</dim>
					<dim>1</dim>
					<dim>1</dim>
				</port>
			</output>
		</layer>
		<layer id="233" name="8743874738646" type="Const" version="opset1">
			<data element_type="f16" offset="2184" shape="1,1,1,1" size="2"/>
			<output>
				<port id="0" precision="FP16">
					<dim>1</dim>
					<dim>1</dim>
					<dim>1</dim>
					<dim>1</dim>
				</port>
			</output>
		</layer>
		<layer id="234" name="8744874839153" type="Const" version="opset1">
			<data element_type="f16" offset="2186" shape="1,1,1,1" size="2"/>
			<output>
				<port id="0" precision="FP16">
					<dim>1</dim>
					<dim>1</dim>
					<dim>1</dim>
					<dim>1</dim>
				</port>
			</output>
		</layer>
		<layer id="235" name="8745874937959" type="Const" version="opset1">
			<data element_type="f16" offset="2184" shape="1,1,1,1" size="2"/>
			<output>
				<port id="0" precision="FP16">
					<dim>1</dim>
					<dim>1</dim>
					<dim>1</dim>
					<dim>1</dim>
				</port>
			</output>
		</layer>
		<layer id="236" name="8746875035997" type="Const" version="opset1">
			<data element_type="f16" offset="2186" shape="1,1,1,1" size="2"/>
			<output>
				<port id="0" precision="FP16">
					<dim>1</dim>
					<dim>1</dim>
					<dim>1</dim>
					<dim>1</dim>
				</port>
			</output>
		</layer>
		<layer id="237" name="6243624741325" type="Const" version="opset1">
			<data element_type="f16" offset="2188" shape="1,8,1,1" size="16"/>
			<output>
				<port id="0" precision="FP16">
					<dim>1</dim>
					<dim>8</dim>
					<dim>1</dim>
					<dim>1</dim>
				</port>
			</output>
		</layer>
		<layer id="238" name="6244624836270" type="Const" version="opset1">
			<data element_type="f16" offset="2204" shape="1,8,1,1" size="16"/>
			<output>
				<port id="0" precision="FP16">
					<dim>1</dim>
					<dim>8</dim>
					<dim>1</dim>
					<dim>1</dim>
				</port>
			</output>
		</layer>
		<layer id="239" name="6245624940122" type="Const" version="opset1">
			<data element_type="f16" offset="2188" shape="1,8,1,1" size="16"/>
			<output>
				<port id="0" precision="FP16">
					<dim>1</dim>
					<dim>8</dim>
					<dim>1</dim>
					<dim>1</dim>
				</port>
			</output>
		</layer>
		<layer id="240" name="6246625041082" type="Const" version="opset1">
			<data element_type="f16" offset="2204" shape="1,8,1,1" size="16"/>
			<output>
				<port id="0" precision="FP16">
					<dim>1</dim>
					<dim>8</dim>
					<dim>1</dim>
					<dim>1</dim>
				</port>
			</output>
		</layer>
		<layer id="241" name="bottleneck1_2/dim_red/bn/mean/Fused_Mul__copy140518795/quantized2624938367" type="Const" version="opset1">
			<data element_type="i8" offset="2220" shape="8,32,1,1" size="256"/>
			<output>
				<port id="0" precision="I8">
					<dim>8</dim>
					<dim>32</dim>
					<dim>1</dim>
					<dim>1</dim>
				</port>
			</output>
		</layer>
		<layer id="242" name="bottleneck1_2/dim_red/bn/mean/Fused_Mul__copy140518795/quantized/to_f16" type="Convert" version="opset1">
			<data destination_type="f16"/>
			<input>
				<port id="0">
					<dim>8</dim>
					<dim>32</dim>
					<dim>1</dim>
					<dim>1</dim>
				</port>
			</input>
			<output>
				<port id="1" precision="FP16">
					<dim>8</dim>
					<dim>32</dim>
					<dim>1</dim>
					<dim>1</dim>
				</port>
			</output>
		</layer>
		<layer id="243" name="bottleneck1_2/dim_red/conv/fq_weights_1/zero_point2626242396" type="Const" version="opset1">
			<data element_type="f16" offset="2476" shape="8,1,1,1" size="16"/>
			<output>
				<port id="0" precision="FP16">
					<dim>8</dim>
					<dim>1</dim>
					<dim>1</dim>
					<dim>1</dim>
				</port>
			</output>
		</layer>
		<layer id="244" name="bottleneck1_2/dim_red/conv/fq_weights_1/minus_zp" type="Subtract" version="opset1">
			<data auto_broadcast="numpy"/>
			<input>
				<port id="0">
					<dim>8</dim>
					<dim>32</dim>
					<dim>1</dim>
					<dim>1</dim>
				</port>
				<port id="1">
					<dim>8</dim>
					<dim>1</dim>
					<dim>1</dim>
					<dim>1</dim>
				</port>
			</input>
			<output>
				<port id="2" precision="FP16">
					<dim>8</dim>
					<dim>32</dim>
					<dim>1</dim>
					<dim>1</dim>
				</port>
			</output>
		</layer>
		<layer id="245" name="bottleneck1_2/dim_red/conv/fq_weights_1/scale2625741022" type="Const" version="opset1">
			<data element_type="f16" offset="2492" shape="8,1,1,1" size="16"/>
			<output>
				<port id="0" precision="FP16">
					<dim>8</dim>
					<dim>1</dim>
					<dim>1</dim>
					<dim>1</dim>
				</port>
			</output>
		</layer>
		<layer id="246" name="bottleneck1_2/dim_red/conv/fq_weights_1/mulpiply_by_scale" type="Multiply" version="opset1">
			<data auto_broadcast="numpy"/>
			<input>
				<port id="0">
					<dim>8</dim>
					<dim>32</dim>
					<dim>1</dim>
					<dim>1</dim>
				</port>
				<port id="1">
					<dim>8</dim>
					<dim>1</dim>
					<dim>1</dim>
					<dim>1</dim>
				</port>
			</input>
			<output>
				<port id="2" precision="FP16">
					<dim>8</dim>
					<dim>32</dim>
					<dim>1</dim>
					<dim>1</dim>
				</port>
			</output>
		</layer>
		<layer id="247" name="bottleneck1_2/dim_red/conv" type="Convolution" version="opset1">
			<data auto_pad="explicit" dilations="1,1" pads_begin="0,0" pads_end="0,0" strides="1,1"/>
			<input>
				<port id="0">
					<dim>1</dim>
					<dim>32</dim>
					<dim>200</dim>
					<dim>340</dim>
				</port>
				<port id="1">
					<dim>8</dim>
					<dim>32</dim>
					<dim>1</dim>
					<dim>1</dim>
				</port>
			</input>
			<output>
				<port id="2" precision="FP16">
					<dim>1</dim>
					<dim>8</dim>
					<dim>200</dim>
					<dim>340</dim>
				</port>
			</output>
		</layer>
		<layer id="248" name="data_add_4356143566140741961" type="Const" version="opset1">
			<data element_type="f16" offset="2508" shape="1,8,1,1" size="16"/>
			<output>
				<port id="0" precision="FP16">
					<dim>1</dim>
					<dim>8</dim>
					<dim>1</dim>
					<dim>1</dim>
				</port>
			</output>
		</layer>
		<layer id="249" name="bottleneck1_2/dim_red/bn/variance/Fused_Add_" type="Add" version="opset1">
			<data auto_broadcast="numpy"/>
			<input>
				<port id="0">
					<dim>1</dim>
					<dim>8</dim>
					<dim>200</dim>
					<dim>340</dim>
				</port>
				<port id="1">
					<dim>1</dim>
					<dim>8</dim>
					<dim>1</dim>
					<dim>1</dim>
				</port>
			</input>
			<output>
				<port id="2" names="bottleneck1_2/dim_red/conv" precision="FP16">
					<dim>1</dim>
					<dim>8</dim>
					<dim>200</dim>
					<dim>340</dim>
				</port>
			</output>
		</layer>
		<layer id="250" name="bottleneck1_2/dim_red/fn/weights57273741081409" type="Const" version="opset1">
			<data element_type="f32" offset="1568" shape="1" size="4"/>
			<output>
				<port id="0" precision="FP32">
					<dim>1</dim>
				</port>
			</output>
		</layer>
		<layer id="251" name="bottleneck1_2/dim_red/fn" type="PReLU" version="opset1">
			<input>
				<port id="0">
					<dim>1</dim>
					<dim>8</dim>
					<dim>200</dim>
					<dim>340</dim>
				</port>
				<port id="1">
					<dim>1</dim>
				</port>
			</input>
			<output>
				<port id="2" names="bottleneck1_2/dim_red/conv" precision="FP16">
					<dim>1</dim>
					<dim>8</dim>
					<dim>200</dim>
					<dim>340</dim>
				</port>
			</output>
		</layer>
		<layer id="252" name="bottleneck1_2/inner/dw1/conv/fq_input_0" type="FakeQuantize" version="opset1">
			<data auto_broadcast="numpy" levels="256"/>
			<input>
				<port id="0">
					<dim>1</dim>
					<dim>8</dim>
					<dim>200</dim>
					<dim>340</dim>
				</port>
				<port id="1">
					<dim>1</dim>
					<dim>8</dim>
					<dim>1</dim>
					<dim>1</dim>
				</port>
				<port id="2">
					<dim>1</dim>
					<dim>8</dim>
					<dim>1</dim>
					<dim>1</dim>
				</port>
				<port id="3">
					<dim>1</dim>
					<dim>8</dim>
					<dim>1</dim>
					<dim>1</dim>
				</port>
				<port id="4">
					<dim>1</dim>
					<dim>8</dim>
					<dim>1</dim>
					<dim>1</dim>
				</port>
			</input>
			<output>
				<port id="5" precision="FP16">
					<dim>1</dim>
					<dim>8</dim>
					<dim>200</dim>
					<dim>340</dim>
				</port>
			</output>
		</layer>
		<layer id="253" name="31420/value3142240746" type="Const" version="opset1">
			<data element_type="i64" offset="1572" shape="5" size="40"/>
			<output>
				<port id="0" precision="I64">
					<dim>5</dim>
				</port>
			</output>
		</layer>
		<layer id="254" name="bottleneck1_2/inner/dw1/bn/mean/Fused_Mul__copy141118798/quantized2144940863" type="Const" version="opset1">
			<data element_type="i8" offset="2524" shape="8,1,3,3" size="72"/>
			<output>
				<port id="0" precision="I8">
					<dim>8</dim>
					<dim>1</dim>
					<dim>3</dim>
					<dim>3</dim>
				</port>
			</output>
		</layer>
		<layer id="255" name="bottleneck1_2/inner/dw1/bn/mean/Fused_Mul__copy141118798/quantized/to_f16" type="Convert" version="opset1">
			<data destination_type="f16"/>
			<input>
				<port id="0">
					<dim>8</dim>
					<dim>1</dim>
					<dim>3</dim>
					<dim>3</dim>
				</port>
			</input>
			<output>
				<port id="1" precision="FP16">
					<dim>8</dim>
					<dim>1</dim>
					<dim>3</dim>
					<dim>3</dim>
				</port>
			</output>
		</layer>
		<layer id="256" name="bottleneck1_2/inner/dw1/conv/fq_weights_1/zero_point2146241004" type="Const" version="opset1">
			<data element_type="f16" offset="2596" shape="8,1,1,1" size="16"/>
			<output>
				<port id="0" precision="FP16">
					<dim>8</dim>
					<dim>1</dim>
					<dim>1</dim>
					<dim>1</dim>
				</port>
			</output>
		</layer>
		<layer id="257" name="bottleneck1_2/inner/dw1/conv/fq_weights_1/minus_zp" type="Subtract" version="opset1">
			<data auto_broadcast="numpy"/>
			<input>
				<port id="0">
					<dim>8</dim>
					<dim>1</dim>
					<dim>3</dim>
					<dim>3</dim>
				</port>
				<port id="1">
					<dim>8</dim>
					<dim>1</dim>
					<dim>1</dim>
					<dim>1</dim>
				</port>
			</input>
			<output>
				<port id="2" precision="FP16">
					<dim>8</dim>
					<dim>1</dim>
					<dim>3</dim>
					<dim>3</dim>
				</port>
			</output>
		</layer>
		<layer id="258" name="bottleneck1_2/inner/dw1/conv/fq_weights_1/scale2145739255" type="Const" version="opset1">
			<data element_type="f16" offset="2612" shape="8,1,1,1" size="16"/>
			<output>
				<port id="0" precision="FP16">
					<dim>8</dim>
					<dim>1</dim>
					<dim>1</dim>
					<dim>1</dim>
				</port>
			</output>
		</layer>
		<layer id="259" name="bottleneck1_2/inner/dw1/conv/fq_weights_1/mulpiply_by_scale" type="Multiply" version="opset1">
			<data auto_broadcast="numpy"/>
			<input>
				<port id="0">
					<dim>8</dim>
					<dim>1</dim>
					<dim>3</dim>
					<dim>3</dim>
				</port>
				<port id="1">
					<dim>8</dim>
					<dim>1</dim>
					<dim>1</dim>
					<dim>1</dim>
				</port>
			</input>
			<output>
				<port id="2" precision="FP16">
					<dim>8</dim>
					<dim>1</dim>
					<dim>3</dim>
					<dim>3</dim>
				</port>
			</output>
		</layer>
		<layer id="260" name="31420" type="Reshape" version="opset1">
			<data special_zero="true"/>
			<input>
				<port id="0">
					<dim>8</dim>
					<dim>1</dim>
					<dim>3</dim>
					<dim>3</dim>
				</port>
				<port id="1">
					<dim>5</dim>
				</port>
			</input>
			<output>
				<port id="2" precision="FP16">
					<dim>8</dim>
					<dim>1</dim>
					<dim>1</dim>
					<dim>3</dim>
					<dim>3</dim>
				</port>
			</output>
		</layer>
		<layer id="261" name="bottleneck1_2/inner/dw1/conv" type="GroupConvolution" version="opset1">
			<data auto_pad="explicit" dilations="1,1" pads_begin="1,1" pads_end="1,1" strides="1,1"/>
			<input>
				<port id="0">
					<dim>1</dim>
					<dim>8</dim>
					<dim>200</dim>
					<dim>340</dim>
				</port>
				<port id="1">
					<dim>8</dim>
					<dim>1</dim>
					<dim>1</dim>
					<dim>3</dim>
					<dim>3</dim>
				</port>
			</input>
			<output>
				<port id="2" precision="FP16">
					<dim>1</dim>
					<dim>8</dim>
					<dim>200</dim>
					<dim>340</dim>
				</port>
			</output>
		</layer>
		<layer id="262" name="data_add_4356943574141340275" type="Const" version="opset1">
			<data element_type="f16" offset="2628" shape="1,8,1,1" size="16"/>
			<output>
				<port id="0" precision="FP16">
					<dim>1</dim>
					<dim>8</dim>
					<dim>1</dim>
					<dim>1</dim>
				</port>
			</output>
		</layer>
		<layer id="263" name="bottleneck1_2/inner/dw1/bn/variance/Fused_Add_" type="Add" version="opset1">
			<data auto_broadcast="numpy"/>
			<input>
				<port id="0">
					<dim>1</dim>
					<dim>8</dim>
					<dim>200</dim>
					<dim>340</dim>
				</port>
				<port id="1">
					<dim>1</dim>
					<dim>8</dim>
					<dim>1</dim>
					<dim>1</dim>
				</port>
			</input>
			<output>
				<port id="2" names="bottleneck1_2/inner/dw1/conv" precision="FP16">
					<dim>1</dim>
					<dim>8</dim>
					<dim>200</dim>
					<dim>340</dim>
				</port>
			</output>
		</layer>
		<layer id="264" name="bottleneck1_2/inner/dw1/fn/weights57413745971415" type="Const" version="opset1">
			<data element_type="f32" offset="1568" shape="1" size="4"/>
			<output>
				<port id="0" precision="FP32">
					<dim>1</dim>
				</port>
			</output>
		</layer>
		<layer id="265" name="bottleneck1_2/inner/dw1/fn" type="PReLU" version="opset1">
			<input>
				<port id="0">
					<dim>1</dim>
					<dim>8</dim>
					<dim>200</dim>
					<dim>340</dim>
				</port>
				<port id="1">
					<dim>1</dim>
				</port>
			</input>
			<output>
				<port id="2" names="bottleneck1_2/inner/dw1/conv" precision="FP16">
					<dim>1</dim>
					<dim>8</dim>
					<dim>200</dim>
					<dim>340</dim>
				</port>
			</output>
		</layer>
		<layer id="266" name="bottleneck1_2/dim_inc/conv/fq_input_0" type="FakeQuantize" version="opset1">
			<data auto_broadcast="numpy" levels="256"/>
			<input>
				<port id="0">
					<dim>1</dim>
					<dim>8</dim>
					<dim>200</dim>
					<dim>340</dim>
				</port>
				<port id="1">
					<dim>1</dim>
					<dim>1</dim>
					<dim>1</dim>
					<dim>1</dim>
				</port>
				<port id="2">
					<dim>1</dim>
					<dim>1</dim>
					<dim>1</dim>
					<dim>1</dim>
				</port>
				<port id="3">
					<dim>1</dim>
					<dim>1</dim>
					<dim>1</dim>
					<dim>1</dim>
				</port>
				<port id="4">
					<dim>1</dim>
					<dim>1</dim>
					<dim>1</dim>
					<dim>1</dim>
				</port>
			</input>
			<output>
				<port id="5" precision="FP16">
					<dim>1</dim>
					<dim>8</dim>
					<dim>200</dim>
					<dim>340</dim>
				</port>
			</output>
		</layer>
		<layer id="267" name="bottleneck1_2/dim_inc/bn/mean/Fused_Mul__copy141718801/quantized2317742231" type="Const" version="opset1">
			<data element_type="i8" offset="2644" shape="32,8,1,1" size="256"/>
			<output>
				<port id="0" precision="I8">
					<dim>32</dim>
					<dim>8</dim>
					<dim>1</dim>
					<dim>1</dim>
				</port>
			</output>
		</layer>
		<layer id="268" name="bottleneck1_2/dim_inc/bn/mean/Fused_Mul__copy141718801/quantized/to_f16" type="Convert" version="opset1">
			<data destination_type="f16"/>
			<input>
				<port id="0">
					<dim>32</dim>
					<dim>8</dim>
					<dim>1</dim>
					<dim>1</dim>
				</port>
			</input>
			<output>
				<port id="1" precision="FP16">
					<dim>32</dim>
					<dim>8</dim>
					<dim>1</dim>
					<dim>1</dim>
				</port>
			</output>
		</layer>
		<layer id="269" name="bottleneck1_2/dim_inc/conv/fq_weights_1/zero_point2319035976" type="Const" version="opset1">
			<data element_type="f16" offset="2900" shape="32,1,1,1" size="64"/>
			<output>
				<port id="0" precision="FP16">
					<dim>32</dim>
					<dim>1</dim>
					<dim>1</dim>
					<dim>1</dim>
				</port>
			</output>
		</layer>
		<layer id="270" name="bottleneck1_2/dim_inc/conv/fq_weights_1/minus_zp" type="Subtract" version="opset1">
			<data auto_broadcast="numpy"/>
			<input>
				<port id="0">
					<dim>32</dim>
					<dim>8</dim>
					<dim>1</dim>
					<dim>1</dim>
				</port>
				<port id="1">
					<dim>32</dim>
					<dim>1</dim>
					<dim>1</dim>
					<dim>1</dim>
				</port>
			</input>
			<output>
				<port id="2" precision="FP16">
					<dim>32</dim>
					<dim>8</dim>
					<dim>1</dim>
					<dim>1</dim>
				</port>
			</output>
		</layer>
		<layer id="271" name="bottleneck1_2/dim_inc/conv/fq_weights_1/scale2318540437" type="Const" version="opset1">
			<data element_type="f16" offset="2964" shape="32,1,1,1" size="64"/>
			<output>
				<port id="0" precision="FP16">
					<dim>32</dim>
					<dim>1</dim>
					<dim>1</dim>
					<dim>1</dim>
				</port>
			</output>
		</layer>
		<layer id="272" name="bottleneck1_2/dim_inc/conv/fq_weights_1/mulpiply_by_scale" type="Multiply" version="opset1">
			<data auto_broadcast="numpy"/>
			<input>
				<port id="0">
					<dim>32</dim>
					<dim>8</dim>
					<dim>1</dim>
					<dim>1</dim>
				</port>
				<port id="1">
					<dim>32</dim>
					<dim>1</dim>
					<dim>1</dim>
					<dim>1</dim>
				</port>
			</input>
			<output>
				<port id="2" precision="FP16">
					<dim>32</dim>
					<dim>8</dim>
					<dim>1</dim>
					<dim>1</dim>
				</port>
			</output>
		</layer>
		<layer id="273" name="bottleneck1_2/dim_inc/conv" type="Convolution" version="opset1">
			<data auto_pad="explicit" dilations="1,1" pads_begin="0,0" pads_end="0,0" strides="1,1"/>
			<input>
				<port id="0">
					<dim>1</dim>
					<dim>8</dim>
					<dim>200</dim>
					<dim>340</dim>
				</port>
				<port id="1">
					<dim>32</dim>
					<dim>8</dim>
					<dim>1</dim>
					<dim>1</dim>
				</port>
			</input>
			<output>
				<port id="2" precision="FP16">
					<dim>1</dim>
					<dim>32</dim>
					<dim>200</dim>
					<dim>340</dim>
				</port>
			</output>
		</layer>
		<layer id="274" name="data_add_4357743582141940362" type="Const" version="opset1">
			<data element_type="f16" offset="3028" shape="1,32,1,1" size="64"/>
			<output>
				<port id="0" precision="FP16">
					<dim>1</dim>
					<dim>32</dim>
					<dim>1</dim>
					<dim>1</dim>
				</port>
			</output>
		</layer>
		<layer id="275" name="bottleneck1_2/dim_inc/bn/variance/Fused_Add_" type="Add" version="opset1">
			<data auto_broadcast="numpy"/>
			<input>
				<port id="0">
					<dim>1</dim>
					<dim>32</dim>
					<dim>200</dim>
					<dim>340</dim>
				</port>
				<port id="1">
					<dim>1</dim>
					<dim>32</dim>
					<dim>1</dim>
					<dim>1</dim>
				</port>
			</input>
			<output>
				<port id="2" names="bottleneck1_2/dim_inc/conv,bottleneck1_2/dim_inc/dropout" precision="FP16">
					<dim>1</dim>
					<dim>32</dim>
					<dim>200</dim>
					<dim>340</dim>
				</port>
			</output>
		</layer>
		<layer id="276" name="bottleneck1_2/add/fq_input_1" type="FakeQuantize" version="opset1">
			<data auto_broadcast="numpy" levels="256"/>
			<input>
				<port id="0">
					<dim>1</dim>
					<dim>32</dim>
					<dim>200</dim>
					<dim>340</dim>
				</port>
				<port id="1">
					<dim>1</dim>
					<dim>1</dim>
					<dim>1</dim>
					<dim>1</dim>
				</port>
				<port id="2">
					<dim>1</dim>
					<dim>1</dim>
					<dim>1</dim>
					<dim>1</dim>
				</port>
				<port id="3">
					<dim>1</dim>
					<dim>1</dim>
					<dim>1</dim>
					<dim>1</dim>
				</port>
				<port id="4">
					<dim>1</dim>
					<dim>1</dim>
					<dim>1</dim>
					<dim>1</dim>
				</port>
			</input>
			<output>
				<port id="5" precision="FP16">
					<dim>1</dim>
					<dim>32</dim>
					<dim>200</dim>
					<dim>340</dim>
				</port>
			</output>
		</layer>
		<layer id="277" name="bottleneck1_2/add" type="Add" version="opset1">
			<data auto_broadcast="numpy"/>
			<input>
				<port id="0">
					<dim>1</dim>
					<dim>32</dim>
					<dim>200</dim>
					<dim>340</dim>
				</port>
				<port id="1">
					<dim>1</dim>
					<dim>32</dim>
					<dim>200</dim>
					<dim>340</dim>
				</port>
			</input>
			<output>
				<port id="2" names="bottleneck1_2/add" precision="FP16">
					<dim>1</dim>
					<dim>32</dim>
					<dim>200</dim>
					<dim>340</dim>
				</port>
			</output>
		</layer>
		<layer id="278" name="bottleneck1_2/fn/weights56953748011422" type="Const" version="opset1">
			<data element_type="f32" offset="1568" shape="1" size="4"/>
			<output>
				<port id="0" precision="FP32">
					<dim>1</dim>
				</port>
			</output>
		</layer>
		<layer id="279" name="bottleneck1_2/fn" type="PReLU" version="opset1">
			<input>
				<port id="0">
					<dim>1</dim>
					<dim>32</dim>
					<dim>200</dim>
					<dim>340</dim>
				</port>
				<port id="1">
					<dim>1</dim>
				</port>
			</input>
			<output>
				<port id="2" names="bottleneck1_2/add" precision="FP16">
					<dim>1</dim>
					<dim>32</dim>
					<dim>200</dim>
					<dim>340</dim>
				</port>
			</output>
		</layer>
		<layer id="280" name="bottleneck1_3/add/fq_input_0" type="FakeQuantize" version="opset1">
			<data auto_broadcast="numpy" levels="256"/>
			<input>
				<port id="0">
					<dim>1</dim>
					<dim>32</dim>
					<dim>200</dim>
					<dim>340</dim>
				</port>
				<port id="1">
					<dim>1</dim>
					<dim>1</dim>
					<dim>1</dim>
					<dim>1</dim>
				</port>
				<port id="2">
					<dim>1</dim>
					<dim>1</dim>
					<dim>1</dim>
					<dim>1</dim>
				</port>
				<port id="3">
					<dim>1</dim>
					<dim>1</dim>
					<dim>1</dim>
					<dim>1</dim>
				</port>
				<port id="4">
					<dim>1</dim>
					<dim>1</dim>
					<dim>1</dim>
					<dim>1</dim>
				</port>
			</input>
			<output>
				<port id="5" precision="FP16">
					<dim>1</dim>
					<dim>32</dim>
					<dim>200</dim>
					<dim>340</dim>
				</port>
			</output>
		</layer>
		<layer id="281" name="6193619738178" type="Const" version="opset1">
			<data element_type="f16" offset="3092" shape="1,1,1,1" size="2"/>
			<output>
				<port id="0" precision="FP16">
					<dim>1</dim>
					<dim>1</dim>
					<dim>1</dim>
					<dim>1</dim>
				</port>
			</output>
		</layer>
		<layer id="282" name="6194619841532" type="Const" version="opset1">
			<data element_type="f16" offset="3094" shape="1,1,1,1" size="2"/>
			<output>
				<port id="0" precision="FP16">
					<dim>1</dim>
					<dim>1</dim>
					<dim>1</dim>
					<dim>1</dim>
				</port>
			</output>
		</layer>
		<layer id="283" name="6195619937647" type="Const" version="opset1">
			<data element_type="f16" offset="3092" shape="1,1,1,1" size="2"/>
			<output>
				<port id="0" precision="FP16">
					<dim>1</dim>
					<dim>1</dim>
					<dim>1</dim>
					<dim>1</dim>
				</port>
			</output>
		</layer>
		<layer id="284" name="6196620040002" type="Const" version="opset1">
			<data element_type="f16" offset="3094" shape="1,1,1,1" size="2"/>
			<output>
				<port id="0" precision="FP16">
					<dim>1</dim>
					<dim>1</dim>
					<dim>1</dim>
					<dim>1</dim>
				</port>
			</output>
		</layer>
		<layer id="285" name="7343734739705" type="Const" version="opset1">
			<data element_type="f16" offset="3096" shape="1,1,1,1" size="2"/>
			<output>
				<port id="0" precision="FP16">
					<dim>1</dim>
					<dim>1</dim>
					<dim>1</dim>
					<dim>1</dim>
				</port>
			</output>
		</layer>
		<layer id="286" name="7344734841988" type="Const" version="opset1">
			<data element_type="f16" offset="3098" shape="1,1,1,1" size="2"/>
			<output>
				<port id="0" precision="FP16">
					<dim>1</dim>
					<dim>1</dim>
					<dim>1</dim>
					<dim>1</dim>
				</port>
			</output>
		</layer>
		<layer id="287" name="7345734939024" type="Const" version="opset1">
			<data element_type="f16" offset="3096" shape="1,1,1,1" size="2"/>
			<output>
				<port id="0" precision="FP16">
					<dim>1</dim>
					<dim>1</dim>
					<dim>1</dim>
					<dim>1</dim>
				</port>
			</output>
		</layer>
		<layer id="288" name="7346735040167" type="Const" version="opset1">
			<data element_type="f16" offset="3098" shape="1,1,1,1" size="2"/>
			<output>
				<port id="0" precision="FP16">
					<dim>1</dim>
					<dim>1</dim>
					<dim>1</dim>
					<dim>1</dim>
				</port>
			</output>
		</layer>
		<layer id="289" name="101531015741457" type="Const" version="opset1">
			<data element_type="f16" offset="3100" shape="1,8,1,1" size="16"/>
			<output>
				<port id="0" precision="FP16">
					<dim>1</dim>
					<dim>8</dim>
					<dim>1</dim>
					<dim>1</dim>
				</port>
			</output>
		</layer>
		<layer id="290" name="101541015838610" type="Const" version="opset1">
			<data element_type="f16" offset="3116" shape="1,8,1,1" size="16"/>
			<output>
				<port id="0" precision="FP16">
					<dim>1</dim>
					<dim>8</dim>
					<dim>1</dim>
					<dim>1</dim>
				</port>
			</output>
		</layer>
		<layer id="291" name="101551015941859" type="Const" version="opset1">
			<data element_type="f16" offset="3100" shape="1,8,1,1" size="16"/>
			<output>
				<port id="0" precision="FP16">
					<dim>1</dim>
					<dim>8</dim>
					<dim>1</dim>
					<dim>1</dim>
				</port>
			</output>
		</layer>
		<layer id="292" name="101561016039942" type="Const" version="opset1">
			<data element_type="f16" offset="3116" shape="1,8,1,1" size="16"/>
			<output>
				<port id="0" precision="FP16">
					<dim>1</dim>
					<dim>8</dim>
					<dim>1</dim>
					<dim>1</dim>
				</port>
			</output>
		</layer>
		<layer id="293" name="bottleneck1_3/dim_red/bn/mean/Fused_Mul__copy142418804/quantized2320137737" type="Const" version="opset1">
			<data element_type="i8" offset="3132" shape="8,32,1,1" size="256"/>
			<output>
				<port id="0" precision="I8">
					<dim>8</dim>
					<dim>32</dim>
					<dim>1</dim>
					<dim>1</dim>
				</port>
			</output>
		</layer>
		<layer id="294" name="bottleneck1_3/dim_red/bn/mean/Fused_Mul__copy142418804/quantized/to_f16" type="Convert" version="opset1">
			<data destination_type="f16"/>
			<input>
				<port id="0">
					<dim>8</dim>
					<dim>32</dim>
					<dim>1</dim>
					<dim>1</dim>
				</port>
			</input>
			<output>
				<port id="1" precision="FP16">
					<dim>8</dim>
					<dim>32</dim>
					<dim>1</dim>
					<dim>1</dim>
				</port>
			</output>
		</layer>
		<layer id="295" name="bottleneck1_3/dim_red/conv/fq_weights_1/zero_point2321438166" type="Const" version="opset1">
			<data element_type="f16" offset="3388" shape="8,1,1,1" size="16"/>
			<output>
				<port id="0" precision="FP16">
					<dim>8</dim>
					<dim>1</dim>
					<dim>1</dim>
					<dim>1</dim>
				</port>
			</output>
		</layer>
		<layer id="296" name="bottleneck1_3/dim_red/conv/fq_weights_1/minus_zp" type="Subtract" version="opset1">
			<data auto_broadcast="numpy"/>
			<input>
				<port id="0">
					<dim>8</dim>
					<dim>32</dim>
					<dim>1</dim>
					<dim>1</dim>
				</port>
				<port id="1">
					<dim>8</dim>
					<dim>1</dim>
					<dim>1</dim>
					<dim>1</dim>
				</port>
			</input>
			<output>
				<port id="2" precision="FP16">
					<dim>8</dim>
					<dim>32</dim>
					<dim>1</dim>
					<dim>1</dim>
				</port>
			</output>
		</layer>
		<layer id="297" name="bottleneck1_3/dim_red/conv/fq_weights_1/scale2320939291" type="Const" version="opset1">
			<data element_type="f16" offset="3404" shape="8,1,1,1" size="16"/>
			<output>
				<port id="0" precision="FP16">
					<dim>8</dim>
					<dim>1</dim>
					<dim>1</dim>
					<dim>1</dim>
				</port>
			</output>
		</layer>
		<layer id="298" name="bottleneck1_3/dim_red/conv/fq_weights_1/mulpiply_by_scale" type="Multiply" version="opset1">
			<data auto_broadcast="numpy"/>
			<input>
				<port id="0">
					<dim>8</dim>
					<dim>32</dim>
					<dim>1</dim>
					<dim>1</dim>
				</port>
				<port id="1">
					<dim>8</dim>
					<dim>1</dim>
					<dim>1</dim>
					<dim>1</dim>
				</port>
			</input>
			<output>
				<port id="2" precision="FP16">
					<dim>8</dim>
					<dim>32</dim>
					<dim>1</dim>
					<dim>1</dim>
				</port>
			</output>
		</layer>
		<layer id="299" name="bottleneck1_3/dim_red/conv" type="Convolution" version="opset1">
			<data auto_pad="explicit" dilations="1,1" pads_begin="0,0" pads_end="0,0" strides="1,1"/>
			<input>
				<port id="0">
					<dim>1</dim>
					<dim>32</dim>
					<dim>200</dim>
					<dim>340</dim>
				</port>
				<port id="1">
					<dim>8</dim>
					<dim>32</dim>
					<dim>1</dim>
					<dim>1</dim>
				</port>
			</input>
			<output>
				<port id="2" precision="FP16">
					<dim>1</dim>
					<dim>8</dim>
					<dim>200</dim>
					<dim>340</dim>
				</port>
			</output>
		</layer>
		<layer id="300" name="data_add_4358543590142641700" type="Const" version="opset1">
			<data element_type="f16" offset="3420" shape="1,8,1,1" size="16"/>
			<output>
				<port id="0" precision="FP16">
					<dim>1</dim>
					<dim>8</dim>
					<dim>1</dim>
					<dim>1</dim>
				</port>
			</output>
		</layer>
		<layer id="301" name="bottleneck1_3/dim_red/bn/variance/Fused_Add_" type="Add" version="opset1">
			<data auto_broadcast="numpy"/>
			<input>
				<port id="0">
					<dim>1</dim>
					<dim>8</dim>
					<dim>200</dim>
					<dim>340</dim>
				</port>
				<port id="1">
					<dim>1</dim>
					<dim>8</dim>
					<dim>1</dim>
					<dim>1</dim>
				</port>
			</input>
			<output>
				<port id="2" names="bottleneck1_3/dim_red/conv" precision="FP16">
					<dim>1</dim>
					<dim>8</dim>
					<dim>200</dim>
					<dim>340</dim>
				</port>
			</output>
		</layer>
		<layer id="302" name="bottleneck1_3/dim_red/fn/weights57057732441428" type="Const" version="opset1">
			<data element_type="f32" offset="1568" shape="1" size="4"/>
			<output>
				<port id="0" precision="FP32">
					<dim>1</dim>
				</port>
			</output>
		</layer>
		<layer id="303" name="bottleneck1_3/dim_red/fn" type="PReLU" version="opset1">
			<input>
				<port id="0">
					<dim>1</dim>
					<dim>8</dim>
					<dim>200</dim>
					<dim>340</dim>
				</port>
				<port id="1">
					<dim>1</dim>
				</port>
			</input>
			<output>
				<port id="2" names="bottleneck1_3/dim_red/conv" precision="FP16">
					<dim>1</dim>
					<dim>8</dim>
					<dim>200</dim>
					<dim>340</dim>
				</port>
			</output>
		</layer>
		<layer id="304" name="bottleneck1_3/inner/dw1/conv/fq_input_0" type="FakeQuantize" version="opset1">
			<data auto_broadcast="numpy" levels="256"/>
			<input>
				<port id="0">
					<dim>1</dim>
					<dim>8</dim>
					<dim>200</dim>
					<dim>340</dim>
				</port>
				<port id="1">
					<dim>1</dim>
					<dim>8</dim>
					<dim>1</dim>
					<dim>1</dim>
				</port>
				<port id="2">
					<dim>1</dim>
					<dim>8</dim>
					<dim>1</dim>
					<dim>1</dim>
				</port>
				<port id="3">
					<dim>1</dim>
					<dim>8</dim>
					<dim>1</dim>
					<dim>1</dim>
				</port>
				<port id="4">
					<dim>1</dim>
					<dim>8</dim>
					<dim>1</dim>
					<dim>1</dim>
				</port>
			</input>
			<output>
				<port id="5" precision="FP16">
					<dim>1</dim>
					<dim>8</dim>
					<dim>200</dim>
					<dim>340</dim>
				</port>
			</output>
		</layer>
		<layer id="305" name="31340/value3134239003" type="Const" version="opset1">
			<data element_type="i64" offset="1572" shape="5" size="40"/>
			<output>
				<port id="0" precision="I64">
					<dim>5</dim>
				</port>
			</output>
		</layer>
		<layer id="306" name="bottleneck1_3/inner/dw1/bn/mean/Fused_Mul__copy143018807/quantized2507338103" type="Const" version="opset1">
			<data element_type="i8" offset="3436" shape="8,1,3,3" size="72"/>
			<output>
				<port id="0" precision="I8">
					<dim>8</dim>
					<dim>1</dim>
					<dim>3</dim>
					<dim>3</dim>
				</port>
			</output>
		</layer>
		<layer id="307" name="bottleneck1_3/inner/dw1/bn/mean/Fused_Mul__copy143018807/quantized/to_f16" type="Convert" version="opset1">
			<data destination_type="f16"/>
			<input>
				<port id="0">
					<dim>8</dim>
					<dim>1</dim>
					<dim>3</dim>
					<dim>3</dim>
				</port>
			</input>
			<output>
				<port id="1" precision="FP16">
					<dim>8</dim>
					<dim>1</dim>
					<dim>3</dim>
					<dim>3</dim>
				</port>
			</output>
		</layer>
		<layer id="308" name="bottleneck1_3/inner/dw1/conv/fq_weights_1/zero_point2508640482" type="Const" version="opset1">
			<data element_type="f16" offset="3508" shape="8,1,1,1" size="16"/>
			<output>
				<port id="0" precision="FP16">
					<dim>8</dim>
					<dim>1</dim>
					<dim>1</dim>
					<dim>1</dim>
				</port>
			</output>
		</layer>
		<layer id="309" name="bottleneck1_3/inner/dw1/conv/fq_weights_1/minus_zp" type="Subtract" version="opset1">
			<data auto_broadcast="numpy"/>
			<input>
				<port id="0">
					<dim>8</dim>
					<dim>1</dim>
					<dim>3</dim>
					<dim>3</dim>
				</port>
				<port id="1">
					<dim>8</dim>
					<dim>1</dim>
					<dim>1</dim>
					<dim>1</dim>
				</port>
			</input>
			<output>
				<port id="2" precision="FP16">
					<dim>8</dim>
					<dim>1</dim>
					<dim>3</dim>
					<dim>3</dim>
				</port>
			</output>
		</layer>
		<layer id="310" name="bottleneck1_3/inner/dw1/conv/fq_weights_1/scale2508139495" type="Const" version="opset1">
			<data element_type="f16" offset="3524" shape="8,1,1,1" size="16"/>
			<output>
				<port id="0" precision="FP16">
					<dim>8</dim>
					<dim>1</dim>
					<dim>1</dim>
					<dim>1</dim>
				</port>
			</output>
		</layer>
		<layer id="311" name="bottleneck1_3/inner/dw1/conv/fq_weights_1/mulpiply_by_scale" type="Multiply" version="opset1">
			<data auto_broadcast="numpy"/>
			<input>
				<port id="0">
					<dim>8</dim>
					<dim>1</dim>
					<dim>3</dim>
					<dim>3</dim>
				</port>
				<port id="1">
					<dim>8</dim>
					<dim>1</dim>
					<dim>1</dim>
					<dim>1</dim>
				</port>
			</input>
			<output>
				<port id="2" precision="FP16">
					<dim>8</dim>
					<dim>1</dim>
					<dim>3</dim>
					<dim>3</dim>
				</port>
			</output>
		</layer>
		<layer id="312" name="31340" type="Reshape" version="opset1">
			<data special_zero="true"/>
			<input>
				<port id="0">
					<dim>8</dim>
					<dim>1</dim>
					<dim>3</dim>
					<dim>3</dim>
				</port>
				<port id="1">
					<dim>5</dim>
				</port>
			</input>
			<output>
				<port id="2" precision="FP16">
					<dim>8</dim>
					<dim>1</dim>
					<dim>1</dim>
					<dim>3</dim>
					<dim>3</dim>
				</port>
			</output>
		</layer>
		<layer id="313" name="bottleneck1_3/inner/dw1/conv" type="GroupConvolution" version="opset1">
			<data auto_pad="explicit" dilations="1,1" pads_begin="1,1" pads_end="1,1" strides="1,1"/>
			<input>
				<port id="0">
					<dim>1</dim>
					<dim>8</dim>
					<dim>200</dim>
					<dim>340</dim>
				</port>
				<port id="1">
					<dim>8</dim>
					<dim>1</dim>
					<dim>1</dim>
					<dim>3</dim>
					<dim>3</dim>
				</port>
			</input>
			<output>
				<port id="2" precision="FP16">
					<dim>1</dim>
					<dim>8</dim>
					<dim>200</dim>
					<dim>340</dim>
				</port>
			</output>
		</layer>
		<layer id="314" name="data_add_4359343598143236294" type="Const" version="opset1">
			<data element_type="f16" offset="3540" shape="1,8,1,1" size="16"/>
			<output>
				<port id="0" precision="FP16">
					<dim>1</dim>
					<dim>8</dim>
					<dim>1</dim>
					<dim>1</dim>
				</port>
			</output>
		</layer>
		<layer id="315" name="bottleneck1_3/inner/dw1/bn/variance/Fused_Add_" type="Add" version="opset1">
			<data auto_broadcast="numpy"/>
			<input>
				<port id="0">
					<dim>1</dim>
					<dim>8</dim>
					<dim>200</dim>
					<dim>340</dim>
				</port>
				<port id="1">
					<dim>1</dim>
					<dim>8</dim>
					<dim>1</dim>
					<dim>1</dim>
				</port>
			</input>
			<output>
				<port id="2" names="bottleneck1_3/inner/dw1/conv" precision="FP16">
					<dim>1</dim>
					<dim>8</dim>
					<dim>200</dim>
					<dim>340</dim>
				</port>
			</output>
		</layer>
		<layer id="316" name="bottleneck1_3/inner/dw1/fn/weights56741747561434" type="Const" version="opset1">
			<data element_type="f32" offset="1568" shape="1" size="4"/>
			<output>
				<port id="0" precision="FP32">
					<dim>1</dim>
				</port>
			</output>
		</layer>
		<layer id="317" name="bottleneck1_3/inner/dw1/fn" type="PReLU" version="opset1">
			<input>
				<port id="0">
					<dim>1</dim>
					<dim>8</dim>
					<dim>200</dim>
					<dim>340</dim>
				</port>
				<port id="1">
					<dim>1</dim>
				</port>
			</input>
			<output>
				<port id="2" names="bottleneck1_3/inner/dw1/conv" precision="FP16">
					<dim>1</dim>
					<dim>8</dim>
					<dim>200</dim>
					<dim>340</dim>
				</port>
			</output>
		</layer>
		<layer id="318" name="bottleneck1_3/dim_inc/conv/fq_input_0" type="FakeQuantize" version="opset1">
			<data auto_broadcast="numpy" levels="256"/>
			<input>
				<port id="0">
					<dim>1</dim>
					<dim>8</dim>
					<dim>200</dim>
					<dim>340</dim>
				</port>
				<port id="1">
					<dim>1</dim>
					<dim>1</dim>
					<dim>1</dim>
					<dim>1</dim>
				</port>
				<port id="2">
					<dim>1</dim>
					<dim>1</dim>
					<dim>1</dim>
					<dim>1</dim>
				</port>
				<port id="3">
					<dim>1</dim>
					<dim>1</dim>
					<dim>1</dim>
					<dim>1</dim>
				</port>
				<port id="4">
					<dim>1</dim>
					<dim>1</dim>
					<dim>1</dim>
					<dim>1</dim>
				</port>
			</input>
			<output>
				<port id="5" precision="FP16">
					<dim>1</dim>
					<dim>8</dim>
					<dim>200</dim>
					<dim>340</dim>
				</port>
			</output>
		</layer>
		<layer id="319" name="bottleneck1_3/dim_inc/bn/mean/Fused_Mul__copy143618810/quantized2509738409" type="Const" version="opset1">
			<data element_type="i8" offset="3556" shape="32,8,1,1" size="256"/>
			<output>
				<port id="0" precision="I8">
					<dim>32</dim>
					<dim>8</dim>
					<dim>1</dim>
					<dim>1</dim>
				</port>
			</output>
		</layer>
		<layer id="320" name="bottleneck1_3/dim_inc/bn/mean/Fused_Mul__copy143618810/quantized/to_f16" type="Convert" version="opset1">
			<data destination_type="f16"/>
			<input>
				<port id="0">
					<dim>32</dim>
					<dim>8</dim>
					<dim>1</dim>
					<dim>1</dim>
				</port>
			</input>
			<output>
				<port id="1" precision="FP16">
					<dim>32</dim>
					<dim>8</dim>
					<dim>1</dim>
					<dim>1</dim>
				</port>
			</output>
		</layer>
		<layer id="321" name="bottleneck1_3/dim_inc/conv/fq_weights_1/zero_point2511042228" type="Const" version="opset1">
			<data element_type="f16" offset="3812" shape="32,1,1,1" size="64"/>
			<output>
				<port id="0" precision="FP16">
					<dim>32</dim>
					<dim>1</dim>
					<dim>1</dim>
					<dim>1</dim>
				</port>
			</output>
		</layer>
		<layer id="322" name="bottleneck1_3/dim_inc/conv/fq_weights_1/minus_zp" type="Subtract" version="opset1">
			<data auto_broadcast="numpy"/>
			<input>
				<port id="0">
					<dim>32</dim>
					<dim>8</dim>
					<dim>1</dim>
					<dim>1</dim>
				</port>
				<port id="1">
					<dim>32</dim>
					<dim>1</dim>
					<dim>1</dim>
					<dim>1</dim>
				</port>
			</input>
			<output>
				<port id="2" precision="FP16">
					<dim>32</dim>
					<dim>8</dim>
					<dim>1</dim>
					<dim>1</dim>
				</port>
			</output>
		</layer>
		<layer id="323" name="bottleneck1_3/dim_inc/conv/fq_weights_1/scale2510536084" type="Const" version="opset1">
			<data element_type="f16" offset="3876" shape="32,1,1,1" size="64"/>
			<output>
				<port id="0" precision="FP16">
					<dim>32</dim>
					<dim>1</dim>
					<dim>1</dim>
					<dim>1</dim>
				</port>
			</output>
		</layer>
		<layer id="324" name="bottleneck1_3/dim_inc/conv/fq_weights_1/mulpiply_by_scale" type="Multiply" version="opset1">
			<data auto_broadcast="numpy"/>
			<input>
				<port id="0">
					<dim>32</dim>
					<dim>8</dim>
					<dim>1</dim>
					<dim>1</dim>
				</port>
				<port id="1">
					<dim>32</dim>
					<dim>1</dim>
					<dim>1</dim>
					<dim>1</dim>
				</port>
			</input>
			<output>
				<port id="2" precision="FP16">
					<dim>32</dim>
					<dim>8</dim>
					<dim>1</dim>
					<dim>1</dim>
				</port>
			</output>
		</layer>
		<layer id="325" name="bottleneck1_3/dim_inc/conv" type="Convolution" version="opset1">
			<data auto_pad="explicit" dilations="1,1" pads_begin="0,0" pads_end="0,0" strides="1,1"/>
			<input>
				<port id="0">
					<dim>1</dim>
					<dim>8</dim>
					<dim>200</dim>
					<dim>340</dim>
				</port>
				<port id="1">
					<dim>32</dim>
					<dim>8</dim>
					<dim>1</dim>
					<dim>1</dim>
				</port>
			</input>
			<output>
				<port id="2" precision="FP16">
					<dim>1</dim>
					<dim>32</dim>
					<dim>200</dim>
					<dim>340</dim>
				</port>
			</output>
		</layer>
		<layer id="326" name="data_add_4360143606143839321" type="Const" version="opset1">
			<data element_type="f16" offset="3940" shape="1,32,1,1" size="64"/>
			<output>
				<port id="0" precision="FP16">
					<dim>1</dim>
					<dim>32</dim>
					<dim>1</dim>
					<dim>1</dim>
				</port>
			</output>
		</layer>
		<layer id="327" name="bottleneck1_3/dim_inc/bn/variance/Fused_Add_" type="Add" version="opset1">
			<data auto_broadcast="numpy"/>
			<input>
				<port id="0">
					<dim>1</dim>
					<dim>32</dim>
					<dim>200</dim>
					<dim>340</dim>
				</port>
				<port id="1">
					<dim>1</dim>
					<dim>32</dim>
					<dim>1</dim>
					<dim>1</dim>
				</port>
			</input>
			<output>
				<port id="2" names="bottleneck1_3/dim_inc/conv,bottleneck1_3/dim_inc/dropout" precision="FP16">
					<dim>1</dim>
					<dim>32</dim>
					<dim>200</dim>
					<dim>340</dim>
				</port>
			</output>
		</layer>
		<layer id="328" name="bottleneck1_3/add/fq_input_1" type="FakeQuantize" version="opset1">
			<data auto_broadcast="numpy" levels="256"/>
			<input>
				<port id="0">
					<dim>1</dim>
					<dim>32</dim>
					<dim>200</dim>
					<dim>340</dim>
				</port>
				<port id="1">
					<dim>1</dim>
					<dim>1</dim>
					<dim>1</dim>
					<dim>1</dim>
				</port>
				<port id="2">
					<dim>1</dim>
					<dim>1</dim>
					<dim>1</dim>
					<dim>1</dim>
				</port>
				<port id="3">
					<dim>1</dim>
					<dim>1</dim>
					<dim>1</dim>
					<dim>1</dim>
				</port>
				<port id="4">
					<dim>1</dim>
					<dim>1</dim>
					<dim>1</dim>
					<dim>1</dim>
				</port>
			</input>
			<output>
				<port id="5" precision="FP16">
					<dim>1</dim>
					<dim>32</dim>
					<dim>200</dim>
					<dim>340</dim>
				</port>
			</output>
		</layer>
		<layer id="329" name="bottleneck1_3/add" type="Add" version="opset1">
			<data auto_broadcast="numpy"/>
			<input>
				<port id="0">
					<dim>1</dim>
					<dim>32</dim>
					<dim>200</dim>
					<dim>340</dim>
				</port>
				<port id="1">
					<dim>1</dim>
					<dim>32</dim>
					<dim>200</dim>
					<dim>340</dim>
				</port>
			</input>
			<output>
				<port id="2" names="bottleneck1_3/add" precision="FP16">
					<dim>1</dim>
					<dim>32</dim>
					<dim>200</dim>
					<dim>340</dim>
				</port>
			</output>
		</layer>
		<layer id="330" name="bottleneck1_3/fn/weights56961733941441" type="Const" version="opset1">
			<data element_type="f32" offset="1568" shape="1" size="4"/>
			<output>
				<port id="0" precision="FP32">
					<dim>1</dim>
				</port>
			</output>
		</layer>
		<layer id="331" name="bottleneck1_3/fn" type="PReLU" version="opset1">
			<input>
				<port id="0">
					<dim>1</dim>
					<dim>32</dim>
					<dim>200</dim>
					<dim>340</dim>
				</port>
				<port id="1">
					<dim>1</dim>
				</port>
			</input>
			<output>
				<port id="2" names="bottleneck1_3/add" precision="FP16">
					<dim>1</dim>
					<dim>32</dim>
					<dim>200</dim>
					<dim>340</dim>
				</port>
			</output>
		</layer>
		<layer id="332" name="bottleneck1_4/add/fq_input_0" type="FakeQuantize" version="opset1">
			<data auto_broadcast="numpy" levels="256"/>
			<input>
				<port id="0">
					<dim>1</dim>
					<dim>32</dim>
					<dim>200</dim>
					<dim>340</dim>
				</port>
				<port id="1">
					<dim>1</dim>
					<dim>1</dim>
					<dim>1</dim>
					<dim>1</dim>
				</port>
				<port id="2">
					<dim>1</dim>
					<dim>1</dim>
					<dim>1</dim>
					<dim>1</dim>
				</port>
				<port id="3">
					<dim>1</dim>
					<dim>1</dim>
					<dim>1</dim>
					<dim>1</dim>
				</port>
				<port id="4">
					<dim>1</dim>
					<dim>1</dim>
					<dim>1</dim>
					<dim>1</dim>
				</port>
			</input>
			<output>
				<port id="5" precision="FP16">
					<dim>1</dim>
					<dim>32</dim>
					<dim>200</dim>
					<dim>340</dim>
				</port>
			</output>
		</layer>
		<layer id="333" name="8423842737023" type="Const" version="opset1">
			<data element_type="f16" offset="4004" shape="1,1,1,1" size="2"/>
			<output>
				<port id="0" precision="FP16">
					<dim>1</dim>
					<dim>1</dim>
					<dim>1</dim>
					<dim>1</dim>
				</port>
			</output>
		</layer>
		<layer id="334" name="8424842838994" type="Const" version="opset1">
			<data element_type="f16" offset="4006" shape="1,1,1,1" size="2"/>
			<output>
				<port id="0" precision="FP16">
					<dim>1</dim>
					<dim>1</dim>
					<dim>1</dim>
					<dim>1</dim>
				</port>
			</output>
		</layer>
		<layer id="335" name="8425842936792" type="Const" version="opset1">
			<data element_type="f16" offset="4004" shape="1,1,1,1" size="2"/>
			<output>
				<port id="0" precision="FP16">
					<dim>1</dim>
					<dim>1</dim>
					<dim>1</dim>
					<dim>1</dim>
				</port>
			</output>
		</layer>
		<layer id="336" name="8426843042504" type="Const" version="opset1">
			<data element_type="f16" offset="4006" shape="1,1,1,1" size="2"/>
			<output>
				<port id="0" precision="FP16">
					<dim>1</dim>
					<dim>1</dim>
					<dim>1</dim>
					<dim>1</dim>
				</port>
			</output>
		</layer>
		<layer id="337" name="4893489741256" type="Const" version="opset1">
			<data element_type="f16" offset="4008" shape="1,1,1,1" size="2"/>
			<output>
				<port id="0" precision="FP16">
					<dim>1</dim>
					<dim>1</dim>
					<dim>1</dim>
					<dim>1</dim>
				</port>
			</output>
		</layer>
		<layer id="338" name="4894489838412" type="Const" version="opset1">
			<data element_type="f16" offset="4010" shape="1,1,1,1" size="2"/>
			<output>
				<port id="0" precision="FP16">
					<dim>1</dim>
					<dim>1</dim>
					<dim>1</dim>
					<dim>1</dim>
				</port>
			</output>
		</layer>
		<layer id="339" name="4895489936060" type="Const" version="opset1">
			<data element_type="f16" offset="4008" shape="1,1,1,1" size="2"/>
			<output>
				<port id="0" precision="FP16">
					<dim>1</dim>
					<dim>1</dim>
					<dim>1</dim>
					<dim>1</dim>
				</port>
			</output>
		</layer>
		<layer id="340" name="4896490040641" type="Const" version="opset1">
			<data element_type="f16" offset="4010" shape="1,1,1,1" size="2"/>
			<output>
				<port id="0" precision="FP16">
					<dim>1</dim>
					<dim>1</dim>
					<dim>1</dim>
					<dim>1</dim>
				</port>
			</output>
		</layer>
		<layer id="341" name="5913591740671" type="Const" version="opset1">
			<data element_type="f16" offset="4012" shape="1,8,1,1" size="16"/>
			<output>
				<port id="0" precision="FP16">
					<dim>1</dim>
					<dim>8</dim>
					<dim>1</dim>
					<dim>1</dim>
				</port>
			</output>
		</layer>
		<layer id="342" name="5914591842168" type="Const" version="opset1">
			<data element_type="f16" offset="4028" shape="1,8,1,1" size="16"/>
			<output>
				<port id="0" precision="FP16">
					<dim>1</dim>
					<dim>8</dim>
					<dim>1</dim>
					<dim>1</dim>
				</port>
			</output>
		</layer>
		<layer id="343" name="5915591940446" type="Const" version="opset1">
			<data element_type="f16" offset="4012" shape="1,8,1,1" size="16"/>
			<output>
				<port id="0" precision="FP16">
					<dim>1</dim>
					<dim>8</dim>
					<dim>1</dim>
					<dim>1</dim>
				</port>
			</output>
		</layer>
		<layer id="344" name="5916592038955" type="Const" version="opset1">
			<data element_type="f16" offset="4028" shape="1,8,1,1" size="16"/>
			<output>
				<port id="0" precision="FP16">
					<dim>1</dim>
					<dim>8</dim>
					<dim>1</dim>
					<dim>1</dim>
				</port>
			</output>
		</layer>
		<layer id="345" name="bottleneck1_4/dim_red/bn/mean/Fused_Mul__copy144318813/quantized2209741013" type="Const" version="opset1">
			<data element_type="i8" offset="4044" shape="8,32,1,1" size="256"/>
			<output>
				<port id="0" precision="I8">
					<dim>8</dim>
					<dim>32</dim>
					<dim>1</dim>
					<dim>1</dim>
				</port>
			</output>
		</layer>
		<layer id="346" name="bottleneck1_4/dim_red/bn/mean/Fused_Mul__copy144318813/quantized/to_f16" type="Convert" version="opset1">
			<data destination_type="f16"/>
			<input>
				<port id="0">
					<dim>8</dim>
					<dim>32</dim>
					<dim>1</dim>
					<dim>1</dim>
				</port>
			</input>
			<output>
				<port id="1" precision="FP16">
					<dim>8</dim>
					<dim>32</dim>
					<dim>1</dim>
					<dim>1</dim>
				</port>
			</output>
		</layer>
		<layer id="347" name="bottleneck1_4/dim_red/conv/fq_weights_1/zero_point2211037497" type="Const" version="opset1">
			<data element_type="f16" offset="4300" shape="8,1,1,1" size="16"/>
			<output>
				<port id="0" precision="FP16">
					<dim>8</dim>
					<dim>1</dim>
					<dim>1</dim>
					<dim>1</dim>
				</port>
			</output>
		</layer>
		<layer id="348" name="bottleneck1_4/dim_red/conv/fq_weights_1/minus_zp" type="Subtract" version="opset1">
			<data auto_broadcast="numpy"/>
			<input>
				<port id="0">
					<dim>8</dim>
					<dim>32</dim>
					<dim>1</dim>
					<dim>1</dim>
				</port>
				<port id="1">
					<dim>8</dim>
					<dim>1</dim>
					<dim>1</dim>
					<dim>1</dim>
				</port>
			</input>
			<output>
				<port id="2" precision="FP16">
					<dim>8</dim>
					<dim>32</dim>
					<dim>1</dim>
					<dim>1</dim>
				</port>
			</output>
		</layer>
		<layer id="349" name="bottleneck1_4/dim_red/conv/fq_weights_1/scale2210541370" type="Const" version="opset1">
			<data element_type="f16" offset="4316" shape="8,1,1,1" size="16"/>
			<output>
				<port id="0" precision="FP16">
					<dim>8</dim>
					<dim>1</dim>
					<dim>1</dim>
					<dim>1</dim>
				</port>
			</output>
		</layer>
		<layer id="350" name="bottleneck1_4/dim_red/conv/fq_weights_1/mulpiply_by_scale" type="Multiply" version="opset1">
			<data auto_broadcast="numpy"/>
			<input>
				<port id="0">
					<dim>8</dim>
					<dim>32</dim>
					<dim>1</dim>
					<dim>1</dim>
				</port>
				<port id="1">
					<dim>8</dim>
					<dim>1</dim>
					<dim>1</dim>
					<dim>1</dim>
				</port>
			</input>
			<output>
				<port id="2" precision="FP16">
					<dim>8</dim>
					<dim>32</dim>
					<dim>1</dim>
					<dim>1</dim>
				</port>
			</output>
		</layer>
		<layer id="351" name="bottleneck1_4/dim_red/conv" type="Convolution" version="opset1">
			<data auto_pad="explicit" dilations="1,1" pads_begin="0,0" pads_end="0,0" strides="1,1"/>
			<input>
				<port id="0">
					<dim>1</dim>
					<dim>32</dim>
					<dim>200</dim>
					<dim>340</dim>
				</port>
				<port id="1">
					<dim>8</dim>
					<dim>32</dim>
					<dim>1</dim>
					<dim>1</dim>
				</port>
			</input>
			<output>
				<port id="2" precision="FP16">
					<dim>1</dim>
					<dim>8</dim>
					<dim>200</dim>
					<dim>340</dim>
				</port>
			</output>
		</layer>
		<layer id="352" name="data_add_4360943614144539930" type="Const" version="opset1">
			<data element_type="f16" offset="4332" shape="1,8,1,1" size="16"/>
			<output>
				<port id="0" precision="FP16">
					<dim>1</dim>
					<dim>8</dim>
					<dim>1</dim>
					<dim>1</dim>
				</port>
			</output>
		</layer>
		<layer id="353" name="bottleneck1_4/dim_red/bn/variance/Fused_Add_" type="Add" version="opset1">
			<data auto_broadcast="numpy"/>
			<input>
				<port id="0">
					<dim>1</dim>
					<dim>8</dim>
					<dim>200</dim>
					<dim>340</dim>
				</port>
				<port id="1">
					<dim>1</dim>
					<dim>8</dim>
					<dim>1</dim>
					<dim>1</dim>
				</port>
			</input>
			<output>
				<port id="2" names="bottleneck1_4/dim_red/conv" precision="FP16">
					<dim>1</dim>
					<dim>8</dim>
					<dim>200</dim>
					<dim>340</dim>
				</port>
			</output>
		</layer>
		<layer id="354" name="bottleneck1_4/dim_red/fn/weights56809743361447" type="Const" version="opset1">
			<data element_type="f32" offset="1568" shape="1" size="4"/>
			<output>
				<port id="0" precision="FP32">
					<dim>1</dim>
				</port>
			</output>
		</layer>
		<layer id="355" name="bottleneck1_4/dim_red/fn" type="PReLU" version="opset1">
			<input>
				<port id="0">
					<dim>1</dim>
					<dim>8</dim>
					<dim>200</dim>
					<dim>340</dim>
				</port>
				<port id="1">
					<dim>1</dim>
				</port>
			</input>
			<output>
				<port id="2" names="bottleneck1_4/dim_red/conv" precision="FP16">
					<dim>1</dim>
					<dim>8</dim>
					<dim>200</dim>
					<dim>340</dim>
				</port>
			</output>
		</layer>
		<layer id="356" name="bottleneck1_4/inner/dw1/conv/fq_input_0" type="FakeQuantize" version="opset1">
			<data auto_broadcast="numpy" levels="256"/>
			<input>
				<port id="0">
					<dim>1</dim>
					<dim>8</dim>
					<dim>200</dim>
					<dim>340</dim>
				</port>
				<port id="1">
					<dim>1</dim>
					<dim>8</dim>
					<dim>1</dim>
					<dim>1</dim>
				</port>
				<port id="2">
					<dim>1</dim>
					<dim>8</dim>
					<dim>1</dim>
					<dim>1</dim>
				</port>
				<port id="3">
					<dim>1</dim>
					<dim>8</dim>
					<dim>1</dim>
					<dim>1</dim>
				</port>
				<port id="4">
					<dim>1</dim>
					<dim>8</dim>
					<dim>1</dim>
					<dim>1</dim>
				</port>
			</input>
			<output>
				<port id="5" precision="FP16">
					<dim>1</dim>
					<dim>8</dim>
					<dim>200</dim>
					<dim>340</dim>
				</port>
			</output>
		</layer>
		<layer id="357" name="31312/value3131439012" type="Const" version="opset1">
			<data element_type="i64" offset="1572" shape="5" size="40"/>
			<output>
				<port id="0" precision="I64">
					<dim>5</dim>
				</port>
			</output>
		</layer>
		<layer id="358" name="bottleneck1_4/inner/dw1/bn/mean/Fused_Mul__copy144918816/quantized2440138400" type="Const" version="opset1">
			<data element_type="i8" offset="4348" shape="8,1,3,3" size="72"/>
			<output>
				<port id="0" precision="I8">
					<dim>8</dim>
					<dim>1</dim>
					<dim>3</dim>
					<dim>3</dim>
				</port>
			</output>
		</layer>
		<layer id="359" name="bottleneck1_4/inner/dw1/bn/mean/Fused_Mul__copy144918816/quantized/to_f16" type="Convert" version="opset1">
			<data destination_type="f16"/>
			<input>
				<port id="0">
					<dim>8</dim>
					<dim>1</dim>
					<dim>3</dim>
					<dim>3</dim>
				</port>
			</input>
			<output>
				<port id="1" precision="FP16">
					<dim>8</dim>
					<dim>1</dim>
					<dim>3</dim>
					<dim>3</dim>
				</port>
			</output>
		</layer>
		<layer id="360" name="bottleneck1_4/inner/dw1/conv/fq_weights_1/zero_point2441437326" type="Const" version="opset1">
			<data element_type="f16" offset="4420" shape="8,1,1,1" size="16"/>
			<output>
				<port id="0" precision="FP16">
					<dim>8</dim>
					<dim>1</dim>
					<dim>1</dim>
					<dim>1</dim>
				</port>
			</output>
		</layer>
		<layer id="361" name="bottleneck1_4/inner/dw1/conv/fq_weights_1/minus_zp" type="Subtract" version="opset1">
			<data auto_broadcast="numpy"/>
			<input>
				<port id="0">
					<dim>8</dim>
					<dim>1</dim>
					<dim>3</dim>
					<dim>3</dim>
				</port>
				<port id="1">
					<dim>8</dim>
					<dim>1</dim>
					<dim>1</dim>
					<dim>1</dim>
				</port>
			</input>
			<output>
				<port id="2" precision="FP16">
					<dim>8</dim>
					<dim>1</dim>
					<dim>3</dim>
					<dim>3</dim>
				</port>
			</output>
		</layer>
		<layer id="362" name="bottleneck1_4/inner/dw1/conv/fq_weights_1/scale2440938946" type="Const" version="opset1">
			<data element_type="f16" offset="4436" shape="8,1,1,1" size="16"/>
			<output>
				<port id="0" precision="FP16">
					<dim>8</dim>
					<dim>1</dim>
					<dim>1</dim>
					<dim>1</dim>
				</port>
			</output>
		</layer>
		<layer id="363" name="bottleneck1_4/inner/dw1/conv/fq_weights_1/mulpiply_by_scale" type="Multiply" version="opset1">
			<data auto_broadcast="numpy"/>
			<input>
				<port id="0">
					<dim>8</dim>
					<dim>1</dim>
					<dim>3</dim>
					<dim>3</dim>
				</port>
				<port id="1">
					<dim>8</dim>
					<dim>1</dim>
					<dim>1</dim>
					<dim>1</dim>
				</port>
			</input>
			<output>
				<port id="2" precision="FP16">
					<dim>8</dim>
					<dim>1</dim>
					<dim>3</dim>
					<dim>3</dim>
				</port>
			</output>
		</layer>
		<layer id="364" name="31312" type="Reshape" version="opset1">
			<data special_zero="true"/>
			<input>
				<port id="0">
					<dim>8</dim>
					<dim>1</dim>
					<dim>3</dim>
					<dim>3</dim>
				</port>
				<port id="1">
					<dim>5</dim>
				</port>
			</input>
			<output>
				<port id="2" precision="FP16">
					<dim>8</dim>
					<dim>1</dim>
					<dim>1</dim>
					<dim>3</dim>
					<dim>3</dim>
				</port>
			</output>
		</layer>
		<layer id="365" name="bottleneck1_4/inner/dw1/conv" type="GroupConvolution" version="opset1">
			<data auto_pad="explicit" dilations="1,1" pads_begin="1,1" pads_end="1,1" strides="1,1"/>
			<input>
				<port id="0">
					<dim>1</dim>
					<dim>8</dim>
					<dim>200</dim>
					<dim>340</dim>
				</port>
				<port id="1">
					<dim>8</dim>
					<dim>1</dim>
					<dim>1</dim>
					<dim>3</dim>
					<dim>3</dim>
				</port>
			</input>
			<output>
				<port id="2" precision="FP16">
					<dim>1</dim>
					<dim>8</dim>
					<dim>200</dim>
					<dim>340</dim>
				</port>
			</output>
		</layer>
		<layer id="366" name="data_add_4361743622145138094" type="Const" version="opset1">
			<data element_type="f16" offset="4452" shape="1,8,1,1" size="16"/>
			<output>
				<port id="0" precision="FP16">
					<dim>1</dim>
					<dim>8</dim>
					<dim>1</dim>
					<dim>1</dim>
				</port>
			</output>
		</layer>
		<layer id="367" name="bottleneck1_4/inner/dw1/bn/variance/Fused_Add_" type="Add" version="opset1">
			<data auto_broadcast="numpy"/>
			<input>
				<port id="0">
					<dim>1</dim>
					<dim>8</dim>
					<dim>200</dim>
					<dim>340</dim>
				</port>
				<port id="1">
					<dim>1</dim>
					<dim>8</dim>
					<dim>1</dim>
					<dim>1</dim>
				</port>
			</input>
			<output>
				<port id="2" names="bottleneck1_4/inner/dw1/conv" precision="FP16">
					<dim>1</dim>
					<dim>8</dim>
					<dim>200</dim>
					<dim>340</dim>
				</port>
			</output>
		</layer>
		<layer id="368" name="bottleneck1_4/inner/dw1/fn/weights57109748521453" type="Const" version="opset1">
			<data element_type="f32" offset="1568" shape="1" size="4"/>
			<output>
				<port id="0" precision="FP32">
					<dim>1</dim>
				</port>
			</output>
		</layer>
		<layer id="369" name="bottleneck1_4/inner/dw1/fn" type="PReLU" version="opset1">
			<input>
				<port id="0">
					<dim>1</dim>
					<dim>8</dim>
					<dim>200</dim>
					<dim>340</dim>
				</port>
				<port id="1">
					<dim>1</dim>
				</port>
			</input>
			<output>
				<port id="2" names="bottleneck1_4/inner/dw1/conv" precision="FP16">
					<dim>1</dim>
					<dim>8</dim>
					<dim>200</dim>
					<dim>340</dim>
				</port>
			</output>
		</layer>
		<layer id="370" name="bottleneck1_4/dim_inc/conv/fq_input_0" type="FakeQuantize" version="opset1">
			<data auto_broadcast="numpy" levels="256"/>
			<input>
				<port id="0">
					<dim>1</dim>
					<dim>8</dim>
					<dim>200</dim>
					<dim>340</dim>
				</port>
				<port id="1">
					<dim>1</dim>
					<dim>1</dim>
					<dim>1</dim>
					<dim>1</dim>
				</port>
				<port id="2">
					<dim>1</dim>
					<dim>1</dim>
					<dim>1</dim>
					<dim>1</dim>
				</port>
				<port id="3">
					<dim>1</dim>
					<dim>1</dim>
					<dim>1</dim>
					<dim>1</dim>
				</port>
				<port id="4">
					<dim>1</dim>
					<dim>1</dim>
					<dim>1</dim>
					<dim>1</dim>
				</port>
			</input>
			<output>
				<port id="5" precision="FP16">
					<dim>1</dim>
					<dim>8</dim>
					<dim>200</dim>
					<dim>340</dim>
				</port>
			</output>
		</layer>
		<layer id="371" name="bottleneck1_4/dim_inc/bn/mean/Fused_Mul__copy145518819/quantized2622541805" type="Const" version="opset1">
			<data element_type="i8" offset="4468" shape="32,8,1,1" size="256"/>
			<output>
				<port id="0" precision="I8">
					<dim>32</dim>
					<dim>8</dim>
					<dim>1</dim>
					<dim>1</dim>
				</port>
			</output>
		</layer>
		<layer id="372" name="bottleneck1_4/dim_inc/bn/mean/Fused_Mul__copy145518819/quantized/to_f16" type="Convert" version="opset1">
			<data destination_type="f16"/>
			<input>
				<port id="0">
					<dim>32</dim>
					<dim>8</dim>
					<dim>1</dim>
					<dim>1</dim>
				</port>
			</input>
			<output>
				<port id="1" precision="FP16">
					<dim>32</dim>
					<dim>8</dim>
					<dim>1</dim>
					<dim>1</dim>
				</port>
			</output>
		</layer>
		<layer id="373" name="bottleneck1_4/dim_inc/conv/fq_weights_1/zero_point2623836381" type="Const" version="opset1">
			<data element_type="f16" offset="4724" shape="32,1,1,1" size="64"/>
			<output>
				<port id="0" precision="FP16">
					<dim>32</dim>
					<dim>1</dim>
					<dim>1</dim>
					<dim>1</dim>
				</port>
			</output>
		</layer>
		<layer id="374" name="bottleneck1_4/dim_inc/conv/fq_weights_1/minus_zp" type="Subtract" version="opset1">
			<data auto_broadcast="numpy"/>
			<input>
				<port id="0">
					<dim>32</dim>
					<dim>8</dim>
					<dim>1</dim>
					<dim>1</dim>
				</port>
				<port id="1">
					<dim>32</dim>
					<dim>1</dim>
					<dim>1</dim>
					<dim>1</dim>
				</port>
			</input>
			<output>
				<port id="2" precision="FP16">
					<dim>32</dim>
					<dim>8</dim>
					<dim>1</dim>
					<dim>1</dim>
				</port>
			</output>
		</layer>
		<layer id="375" name="bottleneck1_4/dim_inc/conv/fq_weights_1/scale2623342321" type="Const" version="opset1">
			<data element_type="f16" offset="4788" shape="32,1,1,1" size="64"/>
			<output>
				<port id="0" precision="FP16">
					<dim>32</dim>
					<dim>1</dim>
					<dim>1</dim>
					<dim>1</dim>
				</port>
			</output>
		</layer>
		<layer id="376" name="bottleneck1_4/dim_inc/conv/fq_weights_1/mulpiply_by_scale" type="Multiply" version="opset1">
			<data auto_broadcast="numpy"/>
			<input>
				<port id="0">
					<dim>32</dim>
					<dim>8</dim>
					<dim>1</dim>
					<dim>1</dim>
				</port>
				<port id="1">
					<dim>32</dim>
					<dim>1</dim>
					<dim>1</dim>
					<dim>1</dim>
				</port>
			</input>
			<output>
				<port id="2" precision="FP16">
					<dim>32</dim>
					<dim>8</dim>
					<dim>1</dim>
					<dim>1</dim>
				</port>
			</output>
		</layer>
		<layer id="377" name="bottleneck1_4/dim_inc/conv" type="Convolution" version="opset1">
			<data auto_pad="explicit" dilations="1,1" pads_begin="0,0" pads_end="0,0" strides="1,1"/>
			<input>
				<port id="0">
					<dim>1</dim>
					<dim>8</dim>
					<dim>200</dim>
					<dim>340</dim>
				</port>
				<port id="1">
					<dim>32</dim>
					<dim>8</dim>
					<dim>1</dim>
					<dim>1</dim>
				</port>
			</input>
			<output>
				<port id="2" precision="FP16">
					<dim>1</dim>
					<dim>32</dim>
					<dim>200</dim>
					<dim>340</dim>
				</port>
			</output>
		</layer>
		<layer id="378" name="data_add_4362543630145741592" type="Const" version="opset1">
			<data element_type="f16" offset="4852" shape="1,32,1,1" size="64"/>
			<output>
				<port id="0" precision="FP16">
					<dim>1</dim>
					<dim>32</dim>
					<dim>1</dim>
					<dim>1</dim>
				</port>
			</output>
		</layer>
		<layer id="379" name="bottleneck1_4/dim_inc/bn/variance/Fused_Add_" type="Add" version="opset1">
			<data auto_broadcast="numpy"/>
			<input>
				<port id="0">
					<dim>1</dim>
					<dim>32</dim>
					<dim>200</dim>
					<dim>340</dim>
				</port>
				<port id="1">
					<dim>1</dim>
					<dim>32</dim>
					<dim>1</dim>
					<dim>1</dim>
				</port>
			</input>
			<output>
				<port id="2" names="bottleneck1_4/dim_inc/conv,bottleneck1_4/dim_inc/dropout" precision="FP16">
					<dim>1</dim>
					<dim>32</dim>
					<dim>200</dim>
					<dim>340</dim>
				</port>
			</output>
		</layer>
		<layer id="380" name="bottleneck1_4/add/fq_input_1" type="FakeQuantize" version="opset1">
			<data auto_broadcast="numpy" levels="256"/>
			<input>
				<port id="0">
					<dim>1</dim>
					<dim>32</dim>
					<dim>200</dim>
					<dim>340</dim>
				</port>
				<port id="1">
					<dim>1</dim>
					<dim>1</dim>
					<dim>1</dim>
					<dim>1</dim>
				</port>
				<port id="2">
					<dim>1</dim>
					<dim>1</dim>
					<dim>1</dim>
					<dim>1</dim>
				</port>
				<port id="3">
					<dim>1</dim>
					<dim>1</dim>
					<dim>1</dim>
					<dim>1</dim>
				</port>
				<port id="4">
					<dim>1</dim>
					<dim>1</dim>
					<dim>1</dim>
					<dim>1</dim>
				</port>
			</input>
			<output>
				<port id="5" precision="FP16">
					<dim>1</dim>
					<dim>32</dim>
					<dim>200</dim>
					<dim>340</dim>
				</port>
			</output>
		</layer>
		<layer id="381" name="bottleneck1_4/add" type="Add" version="opset1">
			<data auto_broadcast="numpy"/>
			<input>
				<port id="0">
					<dim>1</dim>
					<dim>32</dim>
					<dim>200</dim>
					<dim>340</dim>
				</port>
				<port id="1">
					<dim>1</dim>
					<dim>32</dim>
					<dim>200</dim>
					<dim>340</dim>
				</port>
			</input>
			<output>
				<port id="2" names="bottleneck1_4/add" precision="FP16">
					<dim>1</dim>
					<dim>32</dim>
					<dim>200</dim>
					<dim>340</dim>
				</port>
			</output>
		</layer>
		<layer id="382" name="bottleneck1_4/fn/weights57069738381460" type="Const" version="opset1">
			<data element_type="f32" offset="1568" shape="1" size="4"/>
			<output>
				<port id="0" precision="FP32">
					<dim>1</dim>
				</port>
			</output>
		</layer>
		<layer id="383" name="bottleneck1_4/fn" type="PReLU" version="opset1">
			<input>
				<port id="0">
					<dim>1</dim>
					<dim>32</dim>
					<dim>200</dim>
					<dim>340</dim>
				</port>
				<port id="1">
					<dim>1</dim>
				</port>
			</input>
			<output>
				<port id="2" names="bottleneck1_4/add" precision="FP16">
					<dim>1</dim>
					<dim>32</dim>
					<dim>200</dim>
					<dim>340</dim>
				</port>
			</output>
		</layer>
		<layer id="384" name="bottleneck2_0/dim_red/conv/fq_input_0" type="FakeQuantize" version="opset1">
			<data auto_broadcast="numpy" levels="256"/>
			<input>
				<port id="0">
					<dim>1</dim>
					<dim>32</dim>
					<dim>200</dim>
					<dim>340</dim>
				</port>
				<port id="1">
					<dim>1</dim>
					<dim>1</dim>
					<dim>1</dim>
					<dim>1</dim>
				</port>
				<port id="2">
					<dim>1</dim>
					<dim>1</dim>
					<dim>1</dim>
					<dim>1</dim>
				</port>
				<port id="3">
					<dim>1</dim>
					<dim>1</dim>
					<dim>1</dim>
					<dim>1</dim>
				</port>
				<port id="4">
					<dim>1</dim>
					<dim>1</dim>
					<dim>1</dim>
					<dim>1</dim>
				</port>
			</input>
			<output>
				<port id="5" precision="FP16">
					<dim>1</dim>
					<dim>32</dim>
					<dim>200</dim>
					<dim>340</dim>
				</port>
			</output>
		</layer>
		<layer id="385" name="bottleneck2_0/skip/pooling" type="MaxPool" version="opset1">
			<data auto_pad="explicit" kernel="2,2" pads_begin="0,0" pads_end="0,0" rounding_type="ceil" strides="2,2"/>
			<input>
				<port id="0">
					<dim>1</dim>
					<dim>32</dim>
					<dim>200</dim>
					<dim>340</dim>
				</port>
			</input>
			<output>
				<port id="1" names="bottleneck2_0/skip/pooling" precision="FP16">
					<dim>1</dim>
					<dim>32</dim>
					<dim>100</dim>
					<dim>170</dim>
				</port>
			</output>
		</layer>
		<layer id="386" name="bottleneck2_0/skip/bn/mean/Fused_Mul__copy146318822/quantized2161742705" type="Const" version="opset1">
			<data element_type="i8" offset="4916" shape="64,32,1,1" size="2048"/>
			<output>
				<port id="0" precision="I8">
					<dim>64</dim>
					<dim>32</dim>
					<dim>1</dim>
					<dim>1</dim>
				</port>
			</output>
		</layer>
		<layer id="387" name="bottleneck2_0/skip/bn/mean/Fused_Mul__copy146318822/quantized/to_f16" type="Convert" version="opset1">
			<data destination_type="f16"/>
			<input>
				<port id="0">
					<dim>64</dim>
					<dim>32</dim>
					<dim>1</dim>
					<dim>1</dim>
				</port>
			</input>
			<output>
				<port id="1" precision="FP16">
					<dim>64</dim>
					<dim>32</dim>
					<dim>1</dim>
					<dim>1</dim>
				</port>
			</output>
		</layer>
		<layer id="388" name="bottleneck2_0/skip/conv/fq_weights_1/zero_point2163037347" type="Const" version="opset1">
			<data element_type="f16" offset="6964" shape="64,1,1,1" size="128"/>
			<output>
				<port id="0" precision="FP16">
					<dim>64</dim>
					<dim>1</dim>
					<dim>1</dim>
					<dim>1</dim>
				</port>
			</output>
		</layer>
		<layer id="389" name="bottleneck2_0/skip/conv/fq_weights_1/minus_zp" type="Subtract" version="opset1">
			<data auto_broadcast="numpy"/>
			<input>
				<port id="0">
					<dim>64</dim>
					<dim>32</dim>
					<dim>1</dim>
					<dim>1</dim>
				</port>
				<port id="1">
					<dim>64</dim>
					<dim>1</dim>
					<dim>1</dim>
					<dim>1</dim>
				</port>
			</input>
			<output>
				<port id="2" precision="FP16">
					<dim>64</dim>
					<dim>32</dim>
					<dim>1</dim>
					<dim>1</dim>
				</port>
			</output>
		</layer>
		<layer id="390" name="bottleneck2_0/skip/conv/fq_weights_1/scale2162541115" type="Const" version="opset1">
			<data element_type="f16" offset="7092" shape="64,1,1,1" size="128"/>
			<output>
				<port id="0" precision="FP16">
					<dim>64</dim>
					<dim>1</dim>
					<dim>1</dim>
					<dim>1</dim>
				</port>
			</output>
		</layer>
		<layer id="391" name="bottleneck2_0/skip/conv/fq_weights_1/mulpiply_by_scale" type="Multiply" version="opset1">
			<data auto_broadcast="numpy"/>
			<input>
				<port id="0">
					<dim>64</dim>
					<dim>32</dim>
					<dim>1</dim>
					<dim>1</dim>
				</port>
				<port id="1">
					<dim>64</dim>
					<dim>1</dim>
					<dim>1</dim>
					<dim>1</dim>
				</port>
			</input>
			<output>
				<port id="2" precision="FP16">
					<dim>64</dim>
					<dim>32</dim>
					<dim>1</dim>
					<dim>1</dim>
				</port>
			</output>
		</layer>
		<layer id="392" name="bottleneck2_0/skip/conv" type="Convolution" version="opset1">
			<data auto_pad="explicit" dilations="1,1" pads_begin="0,0" pads_end="0,0" strides="1,1"/>
			<input>
				<port id="0">
					<dim>1</dim>
					<dim>32</dim>
					<dim>100</dim>
					<dim>170</dim>
				</port>
				<port id="1">
					<dim>64</dim>
					<dim>32</dim>
					<dim>1</dim>
					<dim>1</dim>
				</port>
			</input>
			<output>
				<port id="2" precision="FP16">
					<dim>1</dim>
					<dim>64</dim>
					<dim>100</dim>
					<dim>170</dim>
				</port>
			</output>
		</layer>
		<layer id="393" name="data_add_4363343638146539411" type="Const" version="opset1">
			<data element_type="f16" offset="7220" shape="1,64,1,1" size="128"/>
			<output>
				<port id="0" precision="FP16">
					<dim>1</dim>
					<dim>64</dim>
					<dim>1</dim>
					<dim>1</dim>
				</port>
			</output>
		</layer>
		<layer id="394" name="bottleneck2_0/skip/bn/variance/Fused_Add_" type="Add" version="opset1">
			<data auto_broadcast="numpy"/>
			<input>
				<port id="0">
					<dim>1</dim>
					<dim>64</dim>
					<dim>100</dim>
					<dim>170</dim>
				</port>
				<port id="1">
					<dim>1</dim>
					<dim>64</dim>
					<dim>1</dim>
					<dim>1</dim>
				</port>
			</input>
			<output>
				<port id="2" names="bottleneck2_0/skip/conv" precision="FP16">
					<dim>1</dim>
					<dim>64</dim>
					<dim>100</dim>
					<dim>170</dim>
				</port>
			</output>
		</layer>
		<layer id="395" name="bottleneck2_0/add/fq_input_0" type="FakeQuantize" version="opset1">
			<data auto_broadcast="numpy" levels="256"/>
			<input>
				<port id="0">
					<dim>1</dim>
					<dim>64</dim>
					<dim>100</dim>
					<dim>170</dim>
				</port>
				<port id="1">
					<dim>1</dim>
					<dim>1</dim>
					<dim>1</dim>
					<dim>1</dim>
				</port>
				<port id="2">
					<dim>1</dim>
					<dim>1</dim>
					<dim>1</dim>
					<dim>1</dim>
				</port>
				<port id="3">
					<dim>1</dim>
					<dim>1</dim>
					<dim>1</dim>
					<dim>1</dim>
				</port>
				<port id="4">
					<dim>1</dim>
					<dim>1</dim>
					<dim>1</dim>
					<dim>1</dim>
				</port>
			</input>
			<output>
				<port id="5" precision="FP16">
					<dim>1</dim>
					<dim>64</dim>
					<dim>100</dim>
					<dim>170</dim>
				</port>
			</output>
		</layer>
		<layer id="396" name="7773777742219" type="Const" version="opset1">
			<data element_type="f16" offset="7348" shape="1,1,1,1" size="2"/>
			<output>
				<port id="0" precision="FP16">
					<dim>1</dim>
					<dim>1</dim>
					<dim>1</dim>
					<dim>1</dim>
				</port>
			</output>
		</layer>
		<layer id="397" name="7774777841829" type="Const" version="opset1">
			<data element_type="f16" offset="7350" shape="1,1,1,1" size="2"/>
			<output>
				<port id="0" precision="FP16">
					<dim>1</dim>
					<dim>1</dim>
					<dim>1</dim>
					<dim>1</dim>
				</port>
			</output>
		</layer>
		<layer id="398" name="7775777940347" type="Const" version="opset1">
			<data element_type="f16" offset="7348" shape="1,1,1,1" size="2"/>
			<output>
…
		<edge from-layer="3343" from-port="0" to-layer="3374" to-port="3"/>
		<edge from-layer="3344" from-port="0" to-layer="3374" to-port="4"/>
		<edge from-layer="3375" from-port="0" to-layer="3376" to-port="0"/>
		<edge from-layer="3376" from-port="1" to-layer="3378" to-port="0"/>
		<edge from-layer="3377" from-port="0" to-layer="3378" to-port="1"/>
		<edge from-layer="3378" from-port="2" to-layer="3380" to-port="0"/>
		<edge from-layer="3379" from-port="0" to-layer="3380" to-port="1"/>
		<edge from-layer="3374" from-port="5" to-layer="3381" to-port="0"/>
		<edge from-layer="3380" from-port="2" to-layer="3381" to-port="1"/>
		<edge from-layer="3381" from-port="2" to-layer="3383" to-port="0"/>
		<edge from-layer="3382" from-port="0" to-layer="3383" to-port="1"/>
		<edge from-layer="3383" from-port="2" to-layer="3384" to-port="0"/>
		<edge from-layer="3337" from-port="0" to-layer="3384" to-port="1"/>
		<edge from-layer="3338" from-port="0" to-layer="3384" to-port="2"/>
		<edge from-layer="3339" from-port="0" to-layer="3384" to-port="3"/>
		<edge from-layer="3340" from-port="0" to-layer="3384" to-port="4"/>
		<edge from-layer="3336" from-port="5" to-layer="3385" to-port="0"/>
		<edge from-layer="3384" from-port="5" to-layer="3385" to-port="1"/>
		<edge from-layer="3385" from-port="2" to-layer="3387" to-port="0"/>
		<edge from-layer="3386" from-port="0" to-layer="3387" to-port="1"/>
		<edge from-layer="3387" from-port="2" to-layer="3388" to-port="0"/>
		<edge from-layer="2195" from-port="0" to-layer="3388" to-port="1"/>
		<edge from-layer="2196" from-port="0" to-layer="3388" to-port="2"/>
		<edge from-layer="2197" from-port="0" to-layer="3388" to-port="3"/>
		<edge from-layer="2198" from-port="0" to-layer="3388" to-port="4"/>
		<edge from-layer="3401" from-port="0" to-layer="3402" to-port="0"/>
		<edge from-layer="3402" from-port="1" to-layer="3404" to-port="0"/>
		<edge from-layer="3403" from-port="0" to-layer="3404" to-port="1"/>
		<edge from-layer="3404" from-port="2" to-layer="3406" to-port="0"/>
		<edge from-layer="3405" from-port="0" to-layer="3406" to-port="1"/>
		<edge from-layer="3388" from-port="5" to-layer="3407" to-port="0"/>
		<edge from-layer="3406" from-port="2" to-layer="3407" to-port="1"/>
		<edge from-layer="3407" from-port="2" to-layer="3409" to-port="0"/>
		<edge from-layer="3408" from-port="0" to-layer="3409" to-port="1"/>
		<edge from-layer="3409" from-port="2" to-layer="3411" to-port="0"/>
		<edge from-layer="3410" from-port="0" to-layer="3411" to-port="1"/>
		<edge from-layer="3411" from-port="2" to-layer="3412" to-port="0"/>
		<edge from-layer="3397" from-port="0" to-layer="3412" to-port="1"/>
		<edge from-layer="3398" from-port="0" to-layer="3412" to-port="2"/>
		<edge from-layer="3399" from-port="0" to-layer="3412" to-port="3"/>
		<edge from-layer="3400" from-port="0" to-layer="3412" to-port="4"/>
		<edge from-layer="3414" from-port="0" to-layer="3415" to-port="0"/>
		<edge from-layer="3415" from-port="1" to-layer="3417" to-port="0"/>
		<edge from-layer="3416" from-port="0" to-layer="3417" to-port="1"/>
		<edge from-layer="3417" from-port="2" to-layer="3419" to-port="0"/>
		<edge from-layer="3418" from-port="0" to-layer="3419" to-port="1"/>
		<edge from-layer="3419" from-port="2" to-layer="3420" to-port="0"/>
		<edge from-layer="3413" from-port="0" to-layer="3420" to-port="1"/>
		<edge from-layer="3412" from-port="5" to-layer="3421" to-port="0"/>
		<edge from-layer="3420" from-port="2" to-layer="3421" to-port="1"/>
		<edge from-layer="3421" from-port="2" to-layer="3423" to-port="0"/>
		<edge from-layer="3422" from-port="0" to-layer="3423" to-port="1"/>
		<edge from-layer="3423" from-port="2" to-layer="3425" to-port="0"/>
		<edge from-layer="3424" from-port="0" to-layer="3425" to-port="1"/>
		<edge from-layer="3425" from-port="2" to-layer="3426" to-port="0"/>
		<edge from-layer="3393" from-port="0" to-layer="3426" to-port="1"/>
		<edge from-layer="3394" from-port="0" to-layer="3426" to-port="2"/>
		<edge from-layer="3395" from-port="0" to-layer="3426" to-port="3"/>
		<edge from-layer="3396" from-port="0" to-layer="3426" to-port="4"/>
		<edge from-layer="3427" from-port="0" to-layer="3428" to-port="0"/>
		<edge from-layer="3428" from-port="1" to-layer="3430" to-port="0"/>
		<edge from-layer="3429" from-port="0" to-layer="3430" to-port="1"/>
		<edge from-layer="3430" from-port="2" to-layer="3432" to-port="0"/>
		<edge from-layer="3431" from-port="0" to-layer="3432" to-port="1"/>
		<edge from-layer="3426" from-port="5" to-layer="3433" to-port="0"/>
		<edge from-layer="3432" from-port="2" to-layer="3433" to-port="1"/>
		<edge from-layer="3433" from-port="2" to-layer="3435" to-port="0"/>
		<edge from-layer="3434" from-port="0" to-layer="3435" to-port="1"/>
		<edge from-layer="3435" from-port="2" to-layer="3436" to-port="0"/>
		<edge from-layer="3389" from-port="0" to-layer="3436" to-port="1"/>
		<edge from-layer="3390" from-port="0" to-layer="3436" to-port="2"/>
		<edge from-layer="3391" from-port="0" to-layer="3436" to-port="3"/>
		<edge from-layer="3392" from-port="0" to-layer="3436" to-port="4"/>
		<edge from-layer="3388" from-port="5" to-layer="3437" to-port="0"/>
		<edge from-layer="3436" from-port="5" to-layer="3437" to-port="1"/>
		<edge from-layer="3437" from-port="2" to-layer="3439" to-port="0"/>
		<edge from-layer="3438" from-port="0" to-layer="3439" to-port="1"/>
		<edge from-layer="3439" from-port="2" to-layer="3440" to-port="0"/>
		<edge from-layer="2191" from-port="0" to-layer="3440" to-port="1"/>
		<edge from-layer="2192" from-port="0" to-layer="3440" to-port="2"/>
		<edge from-layer="2193" from-port="0" to-layer="3440" to-port="3"/>
		<edge from-layer="2194" from-port="0" to-layer="3440" to-port="4"/>
		<edge from-layer="3453" from-port="0" to-layer="3454" to-port="0"/>
		<edge from-layer="3454" from-port="1" to-layer="3456" to-port="0"/>
		<edge from-layer="3455" from-port="0" to-layer="3456" to-port="1"/>
		<edge from-layer="3456" from-port="2" to-layer="3458" to-port="0"/>
		<edge from-layer="3457" from-port="0" to-layer="3458" to-port="1"/>
		<edge from-layer="3440" from-port="5" to-layer="3459" to-port="0"/>
		<edge from-layer="3458" from-port="2" to-layer="3459" to-port="1"/>
		<edge from-layer="3459" from-port="2" to-layer="3461" to-port="0"/>
		<edge from-layer="3460" from-port="0" to-layer="3461" to-port="1"/>
		<edge from-layer="3461" from-port="2" to-layer="3463" to-port="0"/>
		<edge from-layer="3462" from-port="0" to-layer="3463" to-port="1"/>
		<edge from-layer="3463" from-port="2" to-layer="3464" to-port="0"/>
		<edge from-layer="3449" from-port="0" to-layer="3464" to-port="1"/>
		<edge from-layer="3450" from-port="0" to-layer="3464" to-port="2"/>
		<edge from-layer="3451" from-port="0" to-layer="3464" to-port="3"/>
		<edge from-layer="3452" from-port="0" to-layer="3464" to-port="4"/>
		<edge from-layer="3466" from-port="0" to-layer="3467" to-port="0"/>
		<edge from-layer="3467" from-port="1" to-layer="3469" to-port="0"/>
		<edge from-layer="3468" from-port="0" to-layer="3469" to-port="1"/>
		<edge from-layer="3469" from-port="2" to-layer="3471" to-port="0"/>
		<edge from-layer="3470" from-port="0" to-layer="3471" to-port="1"/>
		<edge from-layer="3471" from-port="2" to-layer="3472" to-port="0"/>
		<edge from-layer="3465" from-port="0" to-layer="3472" to-port="1"/>
		<edge from-layer="3464" from-port="5" to-layer="3473" to-port="0"/>
		<edge from-layer="3472" from-port="2" to-layer="3473" to-port="1"/>
		<edge from-layer="3473" from-port="2" to-layer="3475" to-port="0"/>
		<edge from-layer="3474" from-port="0" to-layer="3475" to-port="1"/>
		<edge from-layer="3475" from-port="2" to-layer="3477" to-port="0"/>
		<edge from-layer="3476" from-port="0" to-layer="3477" to-port="1"/>
		<edge from-layer="3477" from-port="2" to-layer="3478" to-port="0"/>
		<edge from-layer="3445" from-port="0" to-layer="3478" to-port="1"/>
		<edge from-layer="3446" from-port="0" to-layer="3478" to-port="2"/>
		<edge from-layer="3447" from-port="0" to-layer="3478" to-port="3"/>
		<edge from-layer="3448" from-port="0" to-layer="3478" to-port="4"/>
		<edge from-layer="3479" from-port="0" to-layer="3480" to-port="0"/>
		<edge from-layer="3480" from-port="1" to-layer="3482" to-port="0"/>
		<edge from-layer="3481" from-port="0" to-layer="3482" to-port="1"/>
		<edge from-layer="3482" from-port="2" to-layer="3484" to-port="0"/>
		<edge from-layer="3483" from-port="0" to-layer="3484" to-port="1"/>
		<edge from-layer="3478" from-port="5" to-layer="3485" to-port="0"/>
		<edge from-layer="3484" from-port="2" to-layer="3485" to-port="1"/>
		<edge from-layer="3485" from-port="2" to-layer="3487" to-port="0"/>
		<edge from-layer="3486" from-port="0" to-layer="3487" to-port="1"/>
		<edge from-layer="3487" from-port="2" to-layer="3488" to-port="0"/>
		<edge from-layer="3441" from-port="0" to-layer="3488" to-port="1"/>
		<edge from-layer="3442" from-port="0" to-layer="3488" to-port="2"/>
		<edge from-layer="3443" from-port="0" to-layer="3488" to-port="3"/>
		<edge from-layer="3444" from-port="0" to-layer="3488" to-port="4"/>
		<edge from-layer="3440" from-port="5" to-layer="3489" to-port="0"/>
		<edge from-layer="3488" from-port="5" to-layer="3489" to-port="1"/>
		<edge from-layer="3489" from-port="2" to-layer="3491" to-port="0"/>
		<edge from-layer="3490" from-port="0" to-layer="3491" to-port="1"/>
		<edge from-layer="3491" from-port="2" to-layer="3492" to-port="0"/>
		<edge from-layer="2187" from-port="0" to-layer="3492" to-port="1"/>
		<edge from-layer="2188" from-port="0" to-layer="3492" to-port="2"/>
		<edge from-layer="2189" from-port="0" to-layer="3492" to-port="3"/>
		<edge from-layer="2190" from-port="0" to-layer="3492" to-port="4"/>
		<edge from-layer="3505" from-port="0" to-layer="3506" to-port="0"/>
		<edge from-layer="3506" from-port="1" to-layer="3508" to-port="0"/>
		<edge from-layer="3507" from-port="0" to-layer="3508" to-port="1"/>
		<edge from-layer="3508" from-port="2" to-layer="3510" to-port="0"/>
		<edge from-layer="3509" from-port="0" to-layer="3510" to-port="1"/>
		<edge from-layer="3492" from-port="5" to-layer="3511" to-port="0"/>
		<edge from-layer="3510" from-port="2" to-layer="3511" to-port="1"/>
		<edge from-layer="3511" from-port="2" to-layer="3513" to-port="0"/>
		<edge from-layer="3512" from-port="0" to-layer="3513" to-port="1"/>
		<edge from-layer="3513" from-port="2" to-layer="3515" to-port="0"/>
		<edge from-layer="3514" from-port="0" to-layer="3515" to-port="1"/>
		<edge from-layer="3515" from-port="2" to-layer="3516" to-port="0"/>
		<edge from-layer="3501" from-port="0" to-layer="3516" to-port="1"/>
		<edge from-layer="3502" from-port="0" to-layer="3516" to-port="2"/>
		<edge from-layer="3503" from-port="0" to-layer="3516" to-port="3"/>
		<edge from-layer="3504" from-port="0" to-layer="3516" to-port="4"/>
		<edge from-layer="3518" from-port="0" to-layer="3519" to-port="0"/>
		<edge from-layer="3519" from-port="1" to-layer="3521" to-port="0"/>
		<edge from-layer="3520" from-port="0" to-layer="3521" to-port="1"/>
		<edge from-layer="3521" from-port="2" to-layer="3523" to-port="0"/>
		<edge from-layer="3522" from-port="0" to-layer="3523" to-port="1"/>
		<edge from-layer="3523" from-port="2" to-layer="3524" to-port="0"/>
		<edge from-layer="3517" from-port="0" to-layer="3524" to-port="1"/>
		<edge from-layer="3516" from-port="5" to-layer="3525" to-port="0"/>
		<edge from-layer="3524" from-port="2" to-layer="3525" to-port="1"/>
		<edge from-layer="3525" from-port="2" to-layer="3527" to-port="0"/>
		<edge from-layer="3526" from-port="0" to-layer="3527" to-port="1"/>
		<edge from-layer="3527" from-port="2" to-layer="3529" to-port="0"/>
		<edge from-layer="3528" from-port="0" to-layer="3529" to-port="1"/>
		<edge from-layer="3529" from-port="2" to-layer="3530" to-port="0"/>
		<edge from-layer="3497" from-port="0" to-layer="3530" to-port="1"/>
		<edge from-layer="3498" from-port="0" to-layer="3530" to-port="2"/>
		<edge from-layer="3499" from-port="0" to-layer="3530" to-port="3"/>
		<edge from-layer="3500" from-port="0" to-layer="3530" to-port="4"/>
		<edge from-layer="3531" from-port="0" to-layer="3532" to-port="0"/>
		<edge from-layer="3532" from-port="1" to-layer="3534" to-port="0"/>
		<edge from-layer="3533" from-port="0" to-layer="3534" to-port="1"/>
		<edge from-layer="3534" from-port="2" to-layer="3536" to-port="0"/>
		<edge from-layer="3535" from-port="0" to-layer="3536" to-port="1"/>
		<edge from-layer="3530" from-port="5" to-layer="3537" to-port="0"/>
		<edge from-layer="3536" from-port="2" to-layer="3537" to-port="1"/>
		<edge from-layer="3537" from-port="2" to-layer="3539" to-port="0"/>
		<edge from-layer="3538" from-port="0" to-layer="3539" to-port="1"/>
		<edge from-layer="3539" from-port="2" to-layer="3540" to-port="0"/>
		<edge from-layer="3493" from-port="0" to-layer="3540" to-port="1"/>
		<edge from-layer="3494" from-port="0" to-layer="3540" to-port="2"/>
		<edge from-layer="3495" from-port="0" to-layer="3540" to-port="3"/>
		<edge from-layer="3496" from-port="0" to-layer="3540" to-port="4"/>
		<edge from-layer="3492" from-port="5" to-layer="3541" to-port="0"/>
		<edge from-layer="3540" from-port="5" to-layer="3541" to-port="1"/>
		<edge from-layer="3541" from-port="2" to-layer="3543" to-port="0"/>
		<edge from-layer="3542" from-port="0" to-layer="3543" to-port="1"/>
		<edge from-layer="3543" from-port="2" to-layer="3544" to-port="0"/>
		<edge from-layer="2183" from-port="0" to-layer="3544" to-port="1"/>
		<edge from-layer="2184" from-port="0" to-layer="3544" to-port="2"/>
		<edge from-layer="2185" from-port="0" to-layer="3544" to-port="3"/>
		<edge from-layer="2186" from-port="0" to-layer="3544" to-port="4"/>
		<edge from-layer="3545" from-port="0" to-layer="3546" to-port="0"/>
		<edge from-layer="3546" from-port="1" to-layer="3548" to-port="0"/>
		<edge from-layer="3547" from-port="0" to-layer="3548" to-port="1"/>
		<edge from-layer="3548" from-port="2" to-layer="3550" to-port="0"/>
		<edge from-layer="3549" from-port="0" to-layer="3550" to-port="1"/>
		<edge from-layer="3544" from-port="5" to-layer="3551" to-port="0"/>
		<edge from-layer="3550" from-port="2" to-layer="3551" to-port="1"/>
		<edge from-layer="3551" from-port="2" to-layer="3553" to-port="0"/>
		<edge from-layer="3552" from-port="0" to-layer="3553" to-port="1"/>
		<edge from-layer="3553" from-port="2" to-layer="3554" to-port="0"/>
		<edge from-layer="2179" from-port="0" to-layer="3554" to-port="1"/>
		<edge from-layer="2180" from-port="0" to-layer="3554" to-port="2"/>
		<edge from-layer="2181" from-port="0" to-layer="3554" to-port="3"/>
		<edge from-layer="2182" from-port="0" to-layer="3554" to-port="4"/>
		<edge from-layer="3554" from-port="5" to-layer="3555" to-port="0"/>
		<edge from-layer="2178" from-port="0" to-layer="3555" to-port="1"/>
		<edge from-layer="3555" from-port="2" to-layer="3557" to-port="0"/>
		<edge from-layer="3556" from-port="0" to-layer="3557" to-port="1"/>
		<edge from-layer="3557" from-port="2" to-layer="3558" to-port="0"/>
		<edge from-layer="2174" from-port="0" to-layer="3558" to-port="1"/>
		<edge from-layer="2175" from-port="0" to-layer="3558" to-port="2"/>
		<edge from-layer="2176" from-port="0" to-layer="3558" to-port="3"/>
		<edge from-layer="2177" from-port="0" to-layer="3558" to-port="4"/>
		<edge from-layer="2173" from-port="5" to-layer="3559" to-port="0"/>
		<edge from-layer="3558" from-port="5" to-layer="3559" to-port="1"/>
		<edge from-layer="3560" from-port="0" to-layer="3561" to-port="0"/>
		<edge from-layer="3561" from-port="1" to-layer="3563" to-port="0"/>
		<edge from-layer="3562" from-port="0" to-layer="3563" to-port="1"/>
		<edge from-layer="3563" from-port="2" to-layer="3565" to-port="0"/>
		<edge from-layer="3564" from-port="0" to-layer="3565" to-port="1"/>
		<edge from-layer="3559" from-port="2" to-layer="3566" to-port="0"/>
		<edge from-layer="3565" from-port="2" to-layer="3566" to-port="1"/>
		<edge from-layer="3566" from-port="2" to-layer="3568" to-port="0"/>
		<edge from-layer="3567" from-port="0" to-layer="3568" to-port="1"/>
		<edge from-layer="3568" from-port="2" to-layer="3570" to-port="0"/>
		<edge from-layer="3569" from-port="0" to-layer="3570" to-port="1"/>
		<edge from-layer="3570" from-port="2" to-layer="3571" to-port="0"/>
		<edge from-layer="2147" from-port="0" to-layer="3571" to-port="1"/>
		<edge from-layer="2148" from-port="0" to-layer="3571" to-port="2"/>
		<edge from-layer="2149" from-port="0" to-layer="3571" to-port="3"/>
		<edge from-layer="2150" from-port="0" to-layer="3571" to-port="4"/>
		<edge from-layer="3572" from-port="0" to-layer="3573" to-port="0"/>
		<edge from-layer="3573" from-port="1" to-layer="3575" to-port="0"/>
		<edge from-layer="3574" from-port="0" to-layer="3575" to-port="1"/>
		<edge from-layer="3575" from-port="2" to-layer="3577" to-port="0"/>
		<edge from-layer="3576" from-port="0" to-layer="3577" to-port="1"/>
		<edge from-layer="3571" from-port="5" to-layer="3578" to-port="0"/>
		<edge from-layer="3577" from-port="2" to-layer="3578" to-port="1"/>
		<edge from-layer="3578" from-port="2" to-layer="3580" to-port="0"/>
		<edge from-layer="3579" from-port="0" to-layer="3580" to-port="1"/>
		<edge from-layer="3580" from-port="2" to-layer="3582" to-port="0"/>
		<edge from-layer="3581" from-port="0" to-layer="3582" to-port="1"/>
		<edge from-layer="3582" from-port="2" to-layer="3583" to-port="0"/>
		<edge from-layer="2143" from-port="0" to-layer="3583" to-port="1"/>
		<edge from-layer="2144" from-port="0" to-layer="3583" to-port="2"/>
		<edge from-layer="2145" from-port="0" to-layer="3583" to-port="3"/>
		<edge from-layer="2146" from-port="0" to-layer="3583" to-port="4"/>
		<edge from-layer="3584" from-port="0" to-layer="3585" to-port="0"/>
		<edge from-layer="3585" from-port="1" to-layer="3587" to-port="0"/>
		<edge from-layer="3586" from-port="0" to-layer="3587" to-port="1"/>
		<edge from-layer="3587" from-port="2" to-layer="3589" to-port="0"/>
		<edge from-layer="3588" from-port="0" to-layer="3589" to-port="1"/>
		<edge from-layer="3583" from-port="5" to-layer="3590" to-port="0"/>
		<edge from-layer="3589" from-port="2" to-layer="3590" to-port="1"/>
		<edge from-layer="3590" from-port="2" to-layer="3592" to-port="0"/>
		<edge from-layer="3591" from-port="0" to-layer="3592" to-port="1"/>
		<edge from-layer="3592" from-port="2" to-layer="3593" to-port="0"/>
		<edge from-layer="2139" from-port="0" to-layer="3593" to-port="1"/>
		<edge from-layer="2140" from-port="0" to-layer="3593" to-port="2"/>
		<edge from-layer="2141" from-port="0" to-layer="3593" to-port="3"/>
		<edge from-layer="2142" from-port="0" to-layer="3593" to-port="4"/>
		<edge from-layer="3593" from-port="5" to-layer="3594" to-port="0"/>
		<edge from-layer="2138" from-port="0" to-layer="3594" to-port="1"/>
		<edge from-layer="3594" from-port="2" to-layer="3596" to-port="0"/>
		<edge from-layer="3595" from-port="0" to-layer="3596" to-port="1"/>
		<edge from-layer="3596" from-port="2" to-layer="3597" to-port="0"/>
		<edge from-layer="2134" from-port="0" to-layer="3597" to-port="1"/>
		<edge from-layer="2135" from-port="0" to-layer="3597" to-port="2"/>
		<edge from-layer="2136" from-port="0" to-layer="3597" to-port="3"/>
		<edge from-layer="2137" from-port="0" to-layer="3597" to-port="4"/>
		<edge from-layer="3598" from-port="0" to-layer="3599" to-port="0"/>
		<edge from-layer="3599" from-port="1" to-layer="3601" to-port="0"/>
		<edge from-layer="3600" from-port="0" to-layer="3601" to-port="1"/>
		<edge from-layer="3601" from-port="2" to-layer="3603" to-port="0"/>
		<edge from-layer="3602" from-port="0" to-layer="3603" to-port="1"/>
		<edge from-layer="3597" from-port="5" to-layer="3604" to-port="0"/>
		<edge from-layer="3603" from-port="2" to-layer="3604" to-port="1"/>
		<edge from-layer="3604" from-port="2" to-layer="3605" to-port="0"/>
		<edge from-layer="2133" from-port="0" to-layer="3605" to-port="1"/>
		<edge from-layer="3605" from-port="2" to-layer="3607" to-port="0"/>
		<edge from-layer="3606" from-port="0" to-layer="3607" to-port="1"/>
		<edge from-layer="3607" from-port="2" to-layer="3608" to-port="0"/>
		<edge from-layer="3636" from-port="0" to-layer="3637" to-port="0"/>
		<edge from-layer="3637" from-port="1" to-layer="3639" to-port="0"/>
		<edge from-layer="3638" from-port="0" to-layer="3639" to-port="1"/>
		<edge from-layer="3639" from-port="2" to-layer="3641" to-port="0"/>
		<edge from-layer="3640" from-port="0" to-layer="3641" to-port="1"/>
		<edge from-layer="2099" from-port="5" to-layer="3642" to-port="0"/>
		<edge from-layer="3641" from-port="2" to-layer="3642" to-port="1"/>
		<edge from-layer="3642" from-port="2" to-layer="3644" to-port="0"/>
		<edge from-layer="3643" from-port="0" to-layer="3644" to-port="1"/>
		<edge from-layer="3644" from-port="2" to-layer="3645" to-port="0"/>
		<edge from-layer="3632" from-port="0" to-layer="3645" to-port="1"/>
		<edge from-layer="3633" from-port="0" to-layer="3645" to-port="2"/>
		<edge from-layer="3634" from-port="0" to-layer="3645" to-port="3"/>
		<edge from-layer="3635" from-port="0" to-layer="3645" to-port="4"/>
		<edge from-layer="3645" from-port="5" to-layer="3646" to-port="0"/>
		<edge from-layer="3631" from-port="0" to-layer="3646" to-port="1"/>
		<edge from-layer="3646" from-port="2" to-layer="3648" to-port="0"/>
		<edge from-layer="3647" from-port="0" to-layer="3648" to-port="1"/>
		<edge from-layer="3648" from-port="2" to-layer="3649" to-port="0"/>
		<edge from-layer="3627" from-port="0" to-layer="3649" to-port="1"/>
		<edge from-layer="3628" from-port="0" to-layer="3649" to-port="2"/>
		<edge from-layer="3629" from-port="0" to-layer="3649" to-port="3"/>
		<edge from-layer="3630" from-port="0" to-layer="3649" to-port="4"/>
		<edge from-layer="3659" from-port="0" to-layer="3660" to-port="0"/>
		<edge from-layer="3660" from-port="1" to-layer="3662" to-port="0"/>
		<edge from-layer="3661" from-port="0" to-layer="3662" to-port="1"/>
		<edge from-layer="3662" from-port="2" to-layer="3664" to-port="0"/>
		<edge from-layer="3663" from-port="0" to-layer="3664" to-port="1"/>
		<edge from-layer="3544" from-port="5" to-layer="3665" to-port="0"/>
		<edge from-layer="3664" from-port="2" to-layer="3665" to-port="1"/>
		<edge from-layer="3665" from-port="2" to-layer="3667" to-port="0"/>
		<edge from-layer="3666" from-port="0" to-layer="3667" to-port="1"/>
		<edge from-layer="3667" from-port="2" to-layer="3668" to-port="0"/>
		<edge from-layer="3655" from-port="0" to-layer="3668" to-port="1"/>
		<edge from-layer="3656" from-port="0" to-layer="3668" to-port="2"/>
		<edge from-layer="3657" from-port="0" to-layer="3668" to-port="3"/>
		<edge from-layer="3658" from-port="0" to-layer="3668" to-port="4"/>
		<edge from-layer="3668" from-port="5" to-layer="3669" to-port="0"/>
		<edge from-layer="3654" from-port="0" to-layer="3669" to-port="1"/>
		<edge from-layer="3669" from-port="2" to-layer="3671" to-port="0"/>
		<edge from-layer="3670" from-port="0" to-layer="3671" to-port="1"/>
		<edge from-layer="3671" from-port="2" to-layer="3672" to-port="0"/>
		<edge from-layer="3650" from-port="0" to-layer="3672" to-port="1"/>
		<edge from-layer="3651" from-port="0" to-layer="3672" to-port="2"/>
		<edge from-layer="3652" from-port="0" to-layer="3672" to-port="3"/>
		<edge from-layer="3653" from-port="0" to-layer="3672" to-port="4"/>
		<edge from-layer="3649" from-port="5" to-layer="3673" to-port="0"/>
		<edge from-layer="3672" from-port="5" to-layer="3673" to-port="1"/>
		<edge from-layer="3674" from-port="0" to-layer="3675" to-port="0"/>
		<edge from-layer="3675" from-port="1" to-layer="3677" to-port="0"/>
		<edge from-layer="3676" from-port="0" to-layer="3677" to-port="1"/>
		<edge from-layer="3677" from-port="2" to-layer="3679" to-port="0"/>
		<edge from-layer="3678" from-port="0" to-layer="3679" to-port="1"/>
		<edge from-layer="3673" from-port="2" to-layer="3680" to-port="0"/>
		<edge from-layer="3679" from-port="2" to-layer="3680" to-port="1"/>
		<edge from-layer="3680" from-port="2" to-layer="3682" to-port="0"/>
		<edge from-layer="3681" from-port="0" to-layer="3682" to-port="1"/>
		<edge from-layer="3682" from-port="2" to-layer="3684" to-port="0"/>
		<edge from-layer="3683" from-port="0" to-layer="3684" to-port="1"/>
		<edge from-layer="3684" from-port="2" to-layer="3685" to-port="0"/>
		<edge from-layer="3623" from-port="0" to-layer="3685" to-port="1"/>
		<edge from-layer="3624" from-port="0" to-layer="3685" to-port="2"/>
		<edge from-layer="3625" from-port="0" to-layer="3685" to-port="3"/>
		<edge from-layer="3626" from-port="0" to-layer="3685" to-port="4"/>
		<edge from-layer="3686" from-port="0" to-layer="3687" to-port="0"/>
		<edge from-layer="3687" from-port="1" to-layer="3689" to-port="0"/>
		<edge from-layer="3688" from-port="0" to-layer="3689" to-port="1"/>
		<edge from-layer="3689" from-port="2" to-layer="3691" to-port="0"/>
		<edge from-layer="3690" from-port="0" to-layer="3691" to-port="1"/>
		<edge from-layer="3685" from-port="5" to-layer="3692" to-port="0"/>
		<edge from-layer="3691" from-port="2" to-layer="3692" to-port="1"/>
		<edge from-layer="3692" from-port="2" to-layer="3694" to-port="0"/>
		<edge from-layer="3693" from-port="0" to-layer="3694" to-port="1"/>
		<edge from-layer="3694" from-port="2" to-layer="3696" to-port="0"/>
		<edge from-layer="3695" from-port="0" to-layer="3696" to-port="1"/>
		<edge from-layer="3696" from-port="2" to-layer="3697" to-port="0"/>
		<edge from-layer="3619" from-port="0" to-layer="3697" to-port="1"/>
		<edge from-layer="3620" from-port="0" to-layer="3697" to-port="2"/>
		<edge from-layer="3621" from-port="0" to-layer="3697" to-port="3"/>
		<edge from-layer="3622" from-port="0" to-layer="3697" to-port="4"/>
		<edge from-layer="3698" from-port="0" to-layer="3699" to-port="0"/>
		<edge from-layer="3699" from-port="1" to-layer="3701" to-port="0"/>
		<edge from-layer="3700" from-port="0" to-layer="3701" to-port="1"/>
		<edge from-layer="3701" from-port="2" to-layer="3703" to-port="0"/>
		<edge from-layer="3702" from-port="0" to-layer="3703" to-port="1"/>
		<edge from-layer="3697" from-port="5" to-layer="3704" to-port="0"/>
		<edge from-layer="3703" from-port="2" to-layer="3704" to-port="1"/>
		<edge from-layer="3704" from-port="2" to-layer="3706" to-port="0"/>
		<edge from-layer="3705" from-port="0" to-layer="3706" to-port="1"/>
		<edge from-layer="3706" from-port="2" to-layer="3707" to-port="0"/>
		<edge from-layer="3615" from-port="0" to-layer="3707" to-port="1"/>
		<edge from-layer="3616" from-port="0" to-layer="3707" to-port="2"/>
		<edge from-layer="3617" from-port="0" to-layer="3707" to-port="3"/>
		<edge from-layer="3618" from-port="0" to-layer="3707" to-port="4"/>
		<edge from-layer="3707" from-port="5" to-layer="3708" to-port="0"/>
		<edge from-layer="3614" from-port="0" to-layer="3708" to-port="1"/>
		<edge from-layer="3708" from-port="2" to-layer="3710" to-port="0"/>
		<edge from-layer="3709" from-port="0" to-layer="3710" to-port="1"/>
		<edge from-layer="3710" from-port="2" to-layer="3711" to-port="0"/>
		<edge from-layer="3610" from-port="0" to-layer="3711" to-port="1"/>
		<edge from-layer="3611" from-port="0" to-layer="3711" to-port="2"/>
		<edge from-layer="3612" from-port="0" to-layer="3711" to-port="3"/>
		<edge from-layer="3613" from-port="0" to-layer="3711" to-port="4"/>
		<edge from-layer="3712" from-port="0" to-layer="3713" to-port="0"/>
		<edge from-layer="3713" from-port="1" to-layer="3715" to-port="0"/>
		<edge from-layer="3714" from-port="0" to-layer="3715" to-port="1"/>
		<edge from-layer="3715" from-port="2" to-layer="3717" to-port="0"/>
		<edge from-layer="3716" from-port="0" to-layer="3717" to-port="1"/>
		<edge from-layer="3711" from-port="5" to-layer="3718" to-port="0"/>
		<edge from-layer="3717" from-port="2" to-layer="3718" to-port="1"/>
		<edge from-layer="3718" from-port="2" to-layer="3719" to-port="0"/>
		<edge from-layer="3609" from-port="0" to-layer="3719" to-port="1"/>
		<edge from-layer="3719" from-port="2" to-layer="3721" to-port="0"/>
		<edge from-layer="3720" from-port="0" to-layer="3721" to-port="1"/>
		<edge from-layer="3721" from-port="2" to-layer="3722" to-port="0"/>
		<edge from-layer="3750" from-port="0" to-layer="3751" to-port="0"/>
		<edge from-layer="3751" from-port="1" to-layer="3753" to-port="0"/>
		<edge from-layer="3752" from-port="0" to-layer="3753" to-port="1"/>
		<edge from-layer="3753" from-port="2" to-layer="3755" to-port="0"/>
		<edge from-layer="3754" from-port="0" to-layer="3755" to-port="1"/>
		<edge from-layer="2099" from-port="5" to-layer="3756" to-port="0"/>
		<edge from-layer="3755" from-port="2" to-layer="3756" to-port="1"/>
		<edge from-layer="3756" from-port="2" to-layer="3758" to-port="0"/>
		<edge from-layer="3757" from-port="0" to-layer="3758" to-port="1"/>
		<edge from-layer="3758" from-port="2" to-layer="3759" to-port="0"/>
		<edge from-layer="3746" from-port="0" to-layer="3759" to-port="1"/>
		<edge from-layer="3747" from-port="0" to-layer="3759" to-port="2"/>
		<edge from-layer="3748" from-port="0" to-layer="3759" to-port="3"/>
		<edge from-layer="3749" from-port="0" to-layer="3759" to-port="4"/>
		<edge from-layer="3759" from-port="5" to-layer="3760" to-port="0"/>
		<edge from-layer="3745" from-port="0" to-layer="3760" to-port="1"/>
		<edge from-layer="3760" from-port="2" to-layer="3762" to-port="0"/>
		<edge from-layer="3761" from-port="0" to-layer="3762" to-port="1"/>
		<edge from-layer="3762" from-port="2" to-layer="3763" to-port="0"/>
		<edge from-layer="3741" from-port="0" to-layer="3763" to-port="1"/>
		<edge from-layer="3742" from-port="0" to-layer="3763" to-port="2"/>
		<edge from-layer="3743" from-port="0" to-layer="3763" to-port="3"/>
		<edge from-layer="3744" from-port="0" to-layer="3763" to-port="4"/>
		<edge from-layer="3773" from-port="0" to-layer="3774" to-port="0"/>
		<edge from-layer="3774" from-port="1" to-layer="3776" to-port="0"/>
		<edge from-layer="3775" from-port="0" to-layer="3776" to-port="1"/>
		<edge from-layer="3776" from-port="2" to-layer="3778" to-port="0"/>
		<edge from-layer="3777" from-port="0" to-layer="3778" to-port="1"/>
		<edge from-layer="3544" from-port="5" to-layer="3779" to-port="0"/>
		<edge from-layer="3778" from-port="2" to-layer="3779" to-port="1"/>
		<edge from-layer="3779" from-port="2" to-layer="3781" to-port="0"/>
		<edge from-layer="3780" from-port="0" to-layer="3781" to-port="1"/>
		<edge from-layer="3781" from-port="2" to-layer="3782" to-port="0"/>
		<edge from-layer="3769" from-port="0" to-layer="3782" to-port="1"/>
		<edge from-layer="3770" from-port="0" to-layer="3782" to-port="2"/>
		<edge from-layer="3771" from-port="0" to-layer="3782" to-port="3"/>
		<edge from-layer="3772" from-port="0" to-layer="3782" to-port="4"/>
		<edge from-layer="3782" from-port="5" to-layer="3783" to-port="0"/>
		<edge from-layer="3768" from-port="0" to-layer="3783" to-port="1"/>
		<edge from-layer="3783" from-port="2" to-layer="3785" to-port="0"/>
		<edge from-layer="3784" from-port="0" to-layer="3785" to-port="1"/>
		<edge from-layer="3785" from-port="2" to-layer="3786" to-port="0"/>
		<edge from-layer="3764" from-port="0" to-layer="3786" to-port="1"/>
		<edge from-layer="3765" from-port="0" to-layer="3786" to-port="2"/>
		<edge from-layer="3766" from-port="0" to-layer="3786" to-port="3"/>
		<edge from-layer="3767" from-port="0" to-layer="3786" to-port="4"/>
		<edge from-layer="3763" from-port="5" to-layer="3787" to-port="0"/>
		<edge from-layer="3786" from-port="5" to-layer="3787" to-port="1"/>
		<edge from-layer="3788" from-port="0" to-layer="3789" to-port="0"/>
		<edge from-layer="3789" from-port="1" to-layer="3791" to-port="0"/>
		<edge from-layer="3790" from-port="0" to-layer="3791" to-port="1"/>
		<edge from-layer="3791" from-port="2" to-layer="3793" to-port="0"/>
		<edge from-layer="3792" from-port="0" to-layer="3793" to-port="1"/>
		<edge from-layer="3787" from-port="2" to-layer="3794" to-port="0"/>
		<edge from-layer="3793" from-port="2" to-layer="3794" to-port="1"/>
		<edge from-layer="3794" from-port="2" to-layer="3796" to-port="0"/>
		<edge from-layer="3795" from-port="0" to-layer="3796" to-port="1"/>
		<edge from-layer="3796" from-port="2" to-layer="3798" to-port="0"/>
		<edge from-layer="3797" from-port="0" to-layer="3798" to-port="1"/>
		<edge from-layer="3798" from-port="2" to-layer="3799" to-port="0"/>
		<edge from-layer="3737" from-port="0" to-layer="3799" to-port="1"/>
		<edge from-layer="3738" from-port="0" to-layer="3799" to-port="2"/>
		<edge from-layer="3739" from-port="0" to-layer="3799" to-port="3"/>
		<edge from-layer="3740" from-port="0" to-layer="3799" to-port="4"/>
		<edge from-layer="3800" from-port="0" to-layer="3801" to-port="0"/>
		<edge from-layer="3801" from-port="1" to-layer="3803" to-port="0"/>
		<edge from-layer="3802" from-port="0" to-layer="3803" to-port="1"/>
		<edge from-layer="3803" from-port="2" to-layer="3805" to-port="0"/>
		<edge from-layer="3804" from-port="0" to-layer="3805" to-port="1"/>
		<edge from-layer="3799" from-port="5" to-layer="3806" to-port="0"/>
		<edge from-layer="3805" from-port="2" to-layer="3806" to-port="1"/>
		<edge from-layer="3806" from-port="2" to-layer="3808" to-port="0"/>
		<edge from-layer="3807" from-port="0" to-layer="3808" to-port="1"/>
		<edge from-layer="3808" from-port="2" to-layer="3810" to-port="0"/>
		<edge from-layer="3809" from-port="0" to-layer="3810" to-port="1"/>
		<edge from-layer="3810" from-port="2" to-layer="3811" to-port="0"/>
		<edge from-layer="3733" from-port="0" to-layer="3811" to-port="1"/>
		<edge from-layer="3734" from-port="0" to-layer="3811" to-port="2"/>
		<edge from-layer="3735" from-port="0" to-layer="3811" to-port="3"/>
		<edge from-layer="3736" from-port="0" to-layer="3811" to-port="4"/>
		<edge from-layer="3812" from-port="0" to-layer="3813" to-port="0"/>
		<edge from-layer="3813" from-port="1" to-layer="3815" to-port="0"/>
		<edge from-layer="3814" from-port="0" to-layer="3815" to-port="1"/>
		<edge from-layer="3815" from-port="2" to-layer="3817" to-port="0"/>
		<edge from-layer="3816" from-port="0" to-layer="3817" to-port="1"/>
		<edge from-layer="3811" from-port="5" to-layer="3818" to-port="0"/>
		<edge from-layer="3817" from-port="2" to-layer="3818" to-port="1"/>
		<edge from-layer="3818" from-port="2" to-layer="3820" to-port="0"/>
		<edge from-layer="3819" from-port="0" to-layer="3820" to-port="1"/>
		<edge from-layer="3820" from-port="2" to-layer="3821" to-port="0"/>
		<edge from-layer="3729" from-port="0" to-layer="3821" to-port="1"/>
		<edge from-layer="3730" from-port="0" to-layer="3821" to-port="2"/>
		<edge from-layer="3731" from-port="0" to-layer="3821" to-port="3"/>
		<edge from-layer="3732" from-port="0" to-layer="3821" to-port="4"/>
		<edge from-layer="3821" from-port="5" to-layer="3822" to-port="0"/>
		<edge from-layer="3728" from-port="0" to-layer="3822" to-port="1"/>
		<edge from-layer="3822" from-port="2" to-layer="3824" to-port="0"/>
		<edge from-layer="3823" from-port="0" to-layer="3824" to-port="1"/>
		<edge from-layer="3824" from-port="2" to-layer="3825" to-port="0"/>
		<edge from-layer="3724" from-port="0" to-layer="3825" to-port="1"/>
		<edge from-layer="3725" from-port="0" to-layer="3825" to-port="2"/>
		<edge from-layer="3726" from-port="0" to-layer="3825" to-port="3"/>
		<edge from-layer="3727" from-port="0" to-layer="3825" to-port="4"/>
		<edge from-layer="3826" from-port="0" to-layer="3827" to-port="0"/>
		<edge from-layer="3827" from-port="1" to-layer="3829" to-port="0"/>
		<edge from-layer="3828" from-port="0" to-layer="3829" to-port="1"/>
		<edge from-layer="3829" from-port="2" to-layer="3831" to-port="0"/>
		<edge from-layer="3830" from-port="0" to-layer="3831" to-port="1"/>
		<edge from-layer="3825" from-port="5" to-layer="3832" to-port="0"/>
		<edge from-layer="3831" from-port="2" to-layer="3832" to-port="1"/>
		<edge from-layer="3832" from-port="2" to-layer="3833" to-port="0"/>
		<edge from-layer="3723" from-port="0" to-layer="3833" to-port="1"/>
		<edge from-layer="3833" from-port="2" to-layer="3835" to-port="0"/>
		<edge from-layer="3834" from-port="0" to-layer="3835" to-port="1"/>
		<edge from-layer="3835" from-port="2" to-layer="3836" to-port="0"/>
		<edge from-layer="3864" from-port="0" to-layer="3865" to-port="0"/>
		<edge from-layer="3865" from-port="1" to-layer="3867" to-port="0"/>
		<edge from-layer="3866" from-port="0" to-layer="3867" to-port="1"/>
		<edge from-layer="3867" from-port="2" to-layer="3869" to-port="0"/>
		<edge from-layer="3868" from-port="0" to-layer="3869" to-port="1"/>
		<edge from-layer="2099" from-port="5" to-layer="3870" to-port="0"/>
		<edge from-layer="3869" from-port="2" to-layer="3870" to-port="1"/>
		<edge from-layer="3870" from-port="2" to-layer="3872" to-port="0"/>
		<edge from-layer="3871" from-port="0" to-layer="3872" to-port="1"/>
		<edge from-layer="3872" from-port="2" to-layer="3873" to-port="0"/>
		<edge from-layer="3860" from-port="0" to-layer="3873" to-port="1"/>
		<edge from-layer="3861" from-port="0" to-layer="3873" to-port="2"/>
		<edge from-layer="3862" from-port="0" to-layer="3873" to-port="3"/>
		<edge from-layer="3863" from-port="0" to-layer="3873" to-port="4"/>
		<edge from-layer="3873" from-port="5" to-layer="3874" to-port="0"/>
		<edge from-layer="3859" from-port="0" to-layer="3874" to-port="1"/>
		<edge from-layer="3874" from-port="2" to-layer="3876" to-port="0"/>
		<edge from-layer="3875" from-port="0" to-layer="3876" to-port="1"/>
		<edge from-layer="3876" from-port="2" to-layer="3877" to-port="0"/>
		<edge from-layer="3855" from-port="0" to-layer="3877" to-port="1"/>
		<edge from-layer="3856" from-port="0" to-layer="3877" to-port="2"/>
		<edge from-layer="3857" from-port="0" to-layer="3877" to-port="3"/>
		<edge from-layer="3858" from-port="0" to-layer="3877" to-port="4"/>
		<edge from-layer="3887" from-port="0" to-layer="3888" to-port="0"/>
		<edge from-layer="3888" from-port="1" to-layer="3890" to-port="0"/>
		<edge from-layer="3889" from-port="0" to-layer="3890" to-port="1"/>
		<edge from-layer="3890" from-port="2" to-layer="3892" to-port="0"/>
		<edge from-layer="3891" from-port="0" to-layer="3892" to-port="1"/>
		<edge from-layer="3544" from-port="5" to-layer="3893" to-port="0"/>
		<edge from-layer="3892" from-port="2" to-layer="3893" to-port="1"/>
		<edge from-layer="3893" from-port="2" to-layer="3895" to-port="0"/>
		<edge from-layer="3894" from-port="0" to-layer="3895" to-port="1"/>
		<edge from-layer="3895" from-port="2" to-layer="3896" to-port="0"/>
		<edge from-layer="3883" from-port="0" to-layer="3896" to-port="1"/>
		<edge from-layer="3884" from-port="0" to-layer="3896" to-port="2"/>
		<edge from-layer="3885" from-port="0" to-layer="3896" to-port="3"/>
		<edge from-layer="3886" from-port="0" to-layer="3896" to-port="4"/>
		<edge from-layer="3896" from-port="5" to-layer="3897" to-port="0"/>
		<edge from-layer="3882" from-port="0" to-layer="3897" to-port="1"/>
		<edge from-layer="3897" from-port="2" to-layer="3899" to-port="0"/>
		<edge from-layer="3898" from-port="0" to-layer="3899" to-port="1"/>
		<edge from-layer="3899" from-port="2" to-layer="3900" to-port="0"/>
		<edge from-layer="3878" from-port="0" to-layer="3900" to-port="1"/>
		<edge from-layer="3879" from-port="0" to-layer="3900" to-port="2"/>
		<edge from-layer="3880" from-port="0" to-layer="3900" to-port="3"/>
		<edge from-layer="3881" from-port="0" to-layer="3900" to-port="4"/>
		<edge from-layer="3877" from-port="5" to-layer="3901" to-port="0"/>
		<edge from-layer="3900" from-port="5" to-layer="3901" to-port="1"/>
		<edge from-layer="3902" from-port="0" to-layer="3903" to-port="0"/>
		<edge from-layer="3903" from-port="1" to-layer="3905" to-port="0"/>
		<edge from-layer="3904" from-port="0" to-layer="3905" to-port="1"/>
		<edge from-layer="3905" from-port="2" to-layer="3907" to-port="0"/>
		<edge from-layer="3906" from-port="0" to-layer="3907" to-port="1"/>
		<edge from-layer="3901" from-port="2" to-layer="3908" to-port="0"/>
		<edge from-layer="3907" from-port="2" to-layer="3908" to-port="1"/>
		<edge from-layer="3908" from-port="2" to-layer="3910" to-port="0"/>
		<edge from-layer="3909" from-port="0" to-layer="3910" to-port="1"/>
		<edge from-layer="3910" from-port="2" to-layer="3912" to-port="0"/>
		<edge from-layer="3911" from-port="0" to-layer="3912" to-port="1"/>
		<edge from-layer="3912" from-port="2" to-layer="3913" to-port="0"/>
		<edge from-layer="3851" from-port="0" to-layer="3913" to-port="1"/>
		<edge from-layer="3852" from-port="0" to-layer="3913" to-port="2"/>
		<edge from-layer="3853" from-port="0" to-layer="3913" to-port="3"/>
		<edge from-layer="3854" from-port="0" to-layer="3913" to-port="4"/>
		<edge from-layer="3914" from-port="0" to-layer="3915" to-port="0"/>
		<edge from-layer="3915" from-port="1" to-layer="3917" to-port="0"/>
		<edge from-layer="3916" from-port="0" to-layer="3917" to-port="1"/>
		<edge from-layer="3917" from-port="2" to-layer="3919" to-port="0"/>
		<edge from-layer="3918" from-port="0" to-layer="3919" to-port="1"/>
		<edge from-layer="3913" from-port="5" to-layer="3920" to-port="0"/>
		<edge from-layer="3919" from-port="2" to-layer="3920" to-port="1"/>
		<edge from-layer="3920" from-port="2" to-layer="3922" to-port="0"/>
		<edge from-layer="3921" from-port="0" to-layer="3922" to-port="1"/>
		<edge from-layer="3922" from-port="2" to-layer="3924" to-port="0"/>
		<edge from-layer="3923" from-port="0" to-layer="3924" to-port="1"/>
		<edge from-layer="3924" from-port="2" to-layer="3925" to-port="0"/>
		<edge from-layer="3847" from-port="0" to-layer="3925" to-port="1"/>
		<edge from-layer="3848" from-port="0" to-layer="3925" to-port="2"/>
		<edge from-layer="3849" from-port="0" to-layer="3925" to-port="3"/>
		<edge from-layer="3850" from-port="0" to-layer="3925" to-port="4"/>
		<edge from-layer="3926" from-port="0" to-layer="3927" to-port="0"/>
		<edge from-layer="3927" from-port="1" to-layer="3929" to-port="0"/>
		<edge from-layer="3928" from-port="0" to-layer="3929" to-port="1"/>
		<edge from-layer="3929" from-port="2" to-layer="3931" to-port="0"/>
		<edge from-layer="3930" from-port="0" to-layer="3931" to-port="1"/>
		<edge from-layer="3925" from-port="5" to-layer="3932" to-port="0"/>
		<edge from-layer="3931" from-port="2" to-layer="3932" to-port="1"/>
		<edge from-layer="3932" from-port="2" to-layer="3934" to-port="0"/>
		<edge from-layer="3933" from-port="0" to-layer="3934" to-port="1"/>
		<edge from-layer="3934" from-port="2" to-layer="3935" to-port="0"/>
		<edge from-layer="3843" from-port="0" to-layer="3935" to-port="1"/>
		<edge from-layer="3844" from-port="0" to-layer="3935" to-port="2"/>
		<edge from-layer="3845" from-port="0" to-layer="3935" to-port="3"/>
		<edge from-layer="3846" from-port="0" to-layer="3935" to-port="4"/>
		<edge from-layer="3935" from-port="5" to-layer="3936" to-port="0"/>
		<edge from-layer="3842" from-port="0" to-layer="3936" to-port="1"/>
		<edge from-layer="3936" from-port="2" to-layer="3938" to-port="0"/>
		<edge from-layer="3937" from-port="0" to-layer="3938" to-port="1"/>
		<edge from-layer="3938" from-port="2" to-layer="3939" to-port="0"/>
		<edge from-layer="3838" from-port="0" to-layer="3939" to-port="1"/>
		<edge from-layer="3839" from-port="0" to-layer="3939" to-port="2"/>
		<edge from-layer="3840" from-port="0" to-layer="3939" to-port="3"/>
		<edge from-layer="3841" from-port="0" to-layer="3939" to-port="4"/>
		<edge from-layer="3940" from-port="0" to-layer="3941" to-port="0"/>
		<edge from-layer="3941" from-port="1" to-layer="3943" to-port="0"/>
		<edge from-layer="3942" from-port="0" to-layer="3943" to-port="1"/>
		<edge from-layer="3943" from-port="2" to-layer="3945" to-port="0"/>
		<edge from-layer="3944" from-port="0" to-layer="3945" to-port="1"/>
		<edge from-layer="3939" from-port="5" to-layer="3946" to-port="0"/>
		<edge from-layer="3945" from-port="2" to-layer="3946" to-port="1"/>
		<edge from-layer="3946" from-port="2" to-layer="3947" to-port="0"/>
		<edge from-layer="3837" from-port="0" to-layer="3947" to-port="1"/>
		<edge from-layer="3947" from-port="2" to-layer="3949" to-port="0"/>
		<edge from-layer="3948" from-port="0" to-layer="3949" to-port="1"/>
		<edge from-layer="3949" from-port="2" to-layer="3950" to-port="0"/>
	</edges>
	<meta_data>
		<MO_version value="custom_HEAD_149c43044cb1e8ed8cd4f3f196b23f7b3f129a36"/>
		<cli_parameters>
			<caffe_parser_path value="DIR"/>
			<data_type value="FP16"/>
			<disable_nhwc_to_nchw value="False"/>
			<disable_omitting_optional value="False"/>
			<disable_resnet_optimization value="False"/>
			<disable_weights_compression value="False"/>
			<enable_concat_optimization value="False"/>
			<enable_flattening_nested_params value="False"/>
			<enable_ssd_gluoncv value="False"/>
			<extensions value="DIR"/>
			<framework value="caffe"/>
			<freeze_placeholder_with_value value="{}"/>
			<generate_deprecated_IR_V7 value="False"/>
			<input value="data"/>
			<input_model value="DIR/weights.caffemodel"/>
			<input_model_is_text value="False"/>
			<input_proto value="DIR/deploy.prototxt"/>
			<input_shape value="[1,3,400,680]"/>
			<k value="DIR/CustomLayersMapping.xml"/>
			<keep_shape_ops value="True"/>
			<legacy_ir_generation value="False"/>
			<legacy_mxnet_model value="False"/>
			<log_level value="ERROR"/>
			<mean_scale_values value="{}"/>
			<mean_values value="()"/>
			<model_name value="person-detection-action-recognition-0005"/>
			<output value="['mbox_loc1/out/conv/flat', 'mbox_main_conf/out/conv/flat/softmax/flat', 'mbox/priorbox', 'out/anchor1', 'out/anchor2', 'out/anchor3', 'out/anchor4']"/>
			<output_dir value="DIR"/>
			<placeholder_data_types value="{}"/>
			<placeholder_shapes value="{'data': array([  1,   3, 400, 680])}"/>
			<progress value="False"/>
			<remove_memory value="False"/>
			<remove_output_softmax value="False"/>
			<reverse_input_channels value="False"/>
			<save_params_from_nd value="False"/>
			<scale_values value="()"/>
			<silent value="False"/>
			<static_shape value="False"/>
			<stream_output value="False"/>
			<transform value=""/>
			<unset unset_cli_parameters="batch, counts, disable_fusing, disable_gfusing, finegrain_fusing, input_checkpoint, input_meta_graph, input_symbol, mean_file, mean_file_offsets, move_to_preprocess, nd_prefix_name, pretrained_model_name, saved_model_dir, saved_model_tags, scale, tensorboard_logdir, tensorflow_custom_layer_libraries, tensorflow_custom_operations_config_update, tensorflow_object_detection_api_pipeline_config, tensorflow_use_custom_operations_config, transformations_config"/>
		</cli_parameters>
	</meta_data>
	<quantization_parameters>
		<config>{
		'compression': {
			'algorithms': [
				{
					'name': 'DefaultQuantization',
					'params': {
						'num_samples_for_tuning': 2000,
						'preset': 'accuracy',
						'stat_subset_size': 300,
						'use_fast_bias': false,
						'use_layerwise_tuning': false
					}
				}
			],
			'dump_intermediate_model': true,
			'target_device': 'ANY'
		},
		'engine': {
			'models': [
				{
					'name': 'person-detection-action-recognition-0005',
					'launchers': [
						{
							'framework': 'dlsdk',
							'adapter': {
								'type': 'action_detection',
								'priorbox_out': 'mbox/priorbox',
								'loc_out': 'mbox_loc1/out/conv/flat',
								'main_conf_out': 'mbox_main_conf/out/conv/flat/softmax/flat',
								'add_conf_out_prefix': 'out/anchor',
								'add_conf_out_count': 4,
								'num_action_classes': 3,
								'detection_threshold': 0.4,
								'action_confidence_threshold': 0.75,
								'action_scale': 3
							},
							'device': 'CPU'
						}
					],
					'datasets': [
						{
							'name': 'action_detection_dataset_3_classes',
							'data_source': 'PATH',
							'annotation_conversion': {
								'converter': 'action_recognition',
								'annotation_file': 'PATH',
								'use_images': true
							},
							'annotation': 'PATH',
							'dataset_meta': 'PATH',
							'preprocessing': [
								{
									'type': 'resize',
									'dst_width': 680,
									'dst_height': 400
								}
							],
							'postprocessing': [
								{
									'type': 'soft_nms',
									'sigma': 0.6,
									'min_score': 0.4,
									'keep_top_k': 200
								},
								{
									'type': 'clip_boxes',
									'apply_to': 'prediction',
									'boxes_normalized': true
								},
								{
									'type': 'filter',
									'is_empty': true,
									'apply_to': 'prediction',
									'remove_filtered': true
								},
								{
									'type': 'normalize_boxes'
								},
								{
									'type': 'clip_boxes',
									'apply_to': 'annotation',
									'boxes_normalized': true
								}
							],
							'metrics': [
								{
									'type': 'map',
									'name': 'class_agnostic@ap',
									'ignore_difficult': false,
									'include_boundaries': false,
									'allow_multiple_matches_per_ignored': false,
									'distinct_conf': true,
									'annotation_source': 'person_annotation',
									'prediction_source': 'class_agnostic_prediction',
									'label_map': 'person_label_map'
								},
								{
									'type': 'detection_accuracy',
									'use_normalization': true,
									'annotation_source': 'action_annotation',
									'prediction_source': 'action_prediction',
									'label_map': 'action_label_map',
									'ignore_label': 3
								}
							],
							'_command_line_mapping': {
								'annotation_file': 'PATH'
							}
						}
					]
				}
			],
			'stat_requests_number': null,
			'eval_requests_number': null,
			'type': 'accuracy_checker'
		}
	}</config>
		<version value="1.0"/>
		<cli_params value="{'quantize': None, 'preset': None, 'model': None, 'weights': None, 'name': None, 'ac_config': None, 'max_drop': None, 'evaluate': False, 'output_dir': 'PATH', 'direct_dump': True, 'log_level': 'INFO', 'pbar': False, 'stream_output': False, 'keep_uncompressed_weights': False}"/>
	</quantization_parameters>
</net>
